Tutorial10/qnet.pt (torch_old, 56920 bytes, 7 tensors)

layers.0.weight f4 [500, 20]
00000000: c43b 10bf 8cf6 3ebf 9435 223f 0b6e 81bf
00000010: 115e 2a3f 1ac9 80bf f480 073f 69ba a0bf
00000020: 6f7e a4bf fa47 f5bd ab83 cabd 9e34 913f
00000030: a7f0 15bf bcb7 803f ea6f d5bf dfa0 6dbf
00000040: 2e34 9a3f 4051 c93d 9136 64be bd6f 423d
00000050: a9bc da3f 8fbb 983e 6a1f 403f fa50 943f
00000060: 072f 553f ff0d 103e ef76 083f 3cf7 1b3f
00000070: 887c a13e f81b 2bbf 70c1 b63d 2131 1a3f
00000080: 2c57 babe e108 aabf 559d 86bf 22c1 ae3e
00000090: 28ca b8bd ae7d 093f e729 44bf 6633 42bf
000000a0: 76fa 913f 6bde e2bf a59d acbf d77a c5bf
000000b0: c66a e9bd 2698 4e3d 603d 3abf cc78 de3f
000000c0: 59d3 86bf 3c76 00bf 2389 993d da22 1b3f
000000d0: e7ea 623f 7202 1cbf db96 7f3f 08a3 2f3c
000000e0: 7cb0 59bf f224 963f 2e25 c6bf 6a61 533f
000000f0: 5f42 d0bd 38de 483f 29ba 933f 2c87 23bf
00000100: e9f2 0d3f 58b9 4fbd 57d8 e23e 6617 db3f
00000110: 1ad7 6a3d bd1c 623e 9608 ab3f 6435 953f
00000120: dba0 783f c10f 8c3f b2fe 2e3e 6119 85bf
00000130: f95f e43f a249 bcbe a4bb 9bbf 3159 19be
00000140: 4000 d33f 867d a73f 3ab6 e83f 93db 14bf
00000150: e727 a63f fe35 89bf b08b 80be 4729 1bbf
00000160: 3e88 4fbf fd29 0cbf b88e 4d3e b840 7b3e
00000170: b453 e3bd 8e0e b23f 7802 1fc0 4493 023f
00000180: 94ae e93e 840b 293d 624c 9ebf 6ab9 a0bf
00000190: 30d0 12bf e61b 64bf fe75 863e a72b d1be
000001a0: f554 2c3f 92e3 fdbe 29da 7dbe 026d 3f3f
000001b0: 2d01 f0be c1bb 4fbf d296 0e3f 9c60 833e
000001c0: b628 96be 251e 8abf d534 283f db21 923f
000001d0: 926c 09bf 72ff b73d dbe3 c3bf 3723 c8bf
000001e0: df80 2d3e 758d 063f b8f4 14bf 2b54 673e
000001f0: 2fcc 7c3f 71ac 1b3f efdb 1abe 9da7 583f
00000200: a4ef a63f 1054 06bf 105c cc3e f993 ec3f
00000210: b743 ac3f e22d 0b40 97a4 b03f aabe 93bf
00000220: 09f4 f63d 8c49 00bf dd43 85bf 8bce 3ebf
00000230: 0986 e33f 9627 82be f517 cf3f 2db0 023f
00000240: 4fb3 ba3f 299b 08bf 5772 6bbe 0de3 6e3f
00000250: 93a8 553f 03df 28bf 0c64 05be 6289 a33f
00000260: 0480 9c3f 7238 6cbf 30dd f8be 3f9d e9bf
00000270: f561 e7be 896f 793f fa53 233e d48e 33bf
00000280: 6f87 4340 a135 f5be 9045 5c3f 337e a33f
00000290: 9750 d73e ce93 99bf 2765 0b3f be28 ee3c
000002a0: f266 51bf c682 e23f f512 a23f 5957 8bbf
000002b0: 128e efbe ef7b c83c ac20 1d40 a178 e73e
000002c0: 0acf 113e 86bf cdbf 7dbd 00c0 1932 c0bf
000002d0: cb07 933f ba17 d0bf 4329 653e b9d1 803f
000002e0: 64f0 153e 78b4 53bd 2c5c f9be dc1c 3c3f
000002f0: 297a 43bf 38e6 633d d0e4 9dbe 5283 803f
00000300: 67cc 3cbf 7adb 033e db75 cd3e e88e 65bf
00000310: e423 d03f 3544 c43f c584 aabe 49b1 e83e
00000320: c376 93bd a603 033f 462d e6bd 1045 2cbf
00000330: 861d d13e 9e50 27be 173d 49bf a324 9bbf
00000340: f171 ad3c c713 45bf fe9c 3bbe cfd0 cabf
00000350: 5739 57bf 42a1 5f3f 679a 73bf 03bd 7cbe
00000360: 4c5e 14be decd 3740 d998 4b3e 2f47 2bbf
00000370: bc27 9fbf a60e c0bf 9ff5 31bf aa31 b2be
00000380: f7e5 633e a8e4 e8bf bc49 adbe a82b 36bf
00000390: b46e 303f 4100 123e 0ced 73be 7226 e93f
000003a0: b2d2 8cbf 576a 1b3f a18d 843f 034f f3be
000003b0: 77a4 c13e 6b19 e7bf 2505 cf3f d3de 29bf
000003c0: 2cc6 37bf 9b04 fabe 50cd a23e a10b 9d3f
000003d0: e478 b0bf 8288 253f bde3 04bf 077a 263e
000003e0: d6b7 063e f03a d33e 97b4 e0be bdd1 86be
000003f0: 0311 b7be bb44 a43f e425 abbf 4836 04bf
-0.56341195 -0.7459495 0.63363004 -1.0111707 0.66549784 -1.0061371 0.5293114 -1.2556888
-1.2851084 -0.11976619 -0.09888395 1.1344182 -0.5857033 1.0056071 -1.6674778 -0.92823595
1.2047174 0.0982995 -0.2228644 0.047469843 1.7088825 0.29830596 0.75047934 1.1587212
0.83274883 0.14067839 0.5330648 0.60924125 0.31540322 -0.6683955 0.08923614 0.60231215
-0.36394632 -1.328396 -1.0516764 0.34131724 -0.09022933 0.53707397 -0.7662644 -0.7585968
1.140456 -1.7724127 -1.3485609 -1.5428113 -0.113973185 0.05043807 -0.727499 1.7380614
-1.0533248 -0.5018041 0.0749686 0.60600054 0.8863968 -0.6094123 0.9983956 0.010720022
-0.8503492 1.1730025 -1.5480096 0.8257052 -0.10168909 0.7846408 1.1541187 -0.6387813
0.55448776 -0.050713867 0.4430568 1.7116516 0.057334043 0.22081275 1.3361995 1.1656919
0.97120446 1.0942308 0.17089346 -1.039837 1.7841789 -0.36774927 -1.2166638 -0.1497543
1.6484451 1.3085182 1.8180611 -0.58147544 1.2980927 -1.0719602 -0.25106573 -0.6060986
-0.81067264 -0.5475157 0.20073974 0.24536407 -0.110999495 1.3910692 -2.4845257 0.5100596
0.45641005 0.041270748 -1.236706 -1.2556584 -0.5734892 -0.8910507 0.26261896 -0.40853617
0.67317134 -0.49587685 -0.24790253 0.7477571 -0.46875897 -0.81145865 0.55698884 0.25659645
-0.29327935 -1.0790449 0.65705615 1.1416582 -0.5368129 0.08984269 -1.5303911 -1.5635747
0.16943692 0.52559596 -0.5818591 0.22590701 0.9874906 0.6081 -0.1512296 0.8463076
1.3041883 -0.5247202 0.39913988 1.8482658 1.3458165 2.1746755 1.3800229 -1.1542561
0.12058265 -0.50112224 -1.0411335 -0.7453391 1.7775279 -0.25420827 1.6179186 0.5105007
1.4585971 -0.53361756 -0.22992836 0.933152 0.8346035 -0.6596529 -0.13026446 1.2776301
1.2226567 -0.9227363 -0.48606253 -1.8251113 -0.45191923 0.97435814 0.15950003 -0.70139813
3.0551412 -0.47892478 0.86043644 1.2772888 0.42053673 -1.1998231 0.5445122 0.029072162
-0.8179771 1.7696159 1.2662035 -1.0886031 -0.4678808 0.024473159 2.4551191 0.4520922
0.14239135 -1.6074073 -2.0115654 -1.5015289 1.1486753 -1.6257241 0.22379021 1.0064002
0.14642483 -0.05168578 -0.48703134 0.73481536 -0.76358277 0.055639476 -0.30838633 1.0040076
-0.73749393 0.12876692 0.4012898 -0.8967118 1.6260953 1.5333315 -0.3330442 0.45447758
-0.072003864 0.5117744 -0.11239104 -0.6729288 0.40842837 -0.16339347 -0.7860884 -1.2120556
0.021172496 -0.769833 -0.18321607 -1.5844973 -0.8407187 0.87355435 -0.95157474 -0.24681477
-0.14489096 2.8719401 0.19882526 -0.6690549 -1.2434001 -1.500447 -0.69515413 -0.34803516
0.22255693 -1.819478 -0.33845317 -0.71160364 0.6891892 0.1425791 -0.23820895 1.8214858
-1.1001799 0.60709137 1.0355722 -0.4752122 0.3782079 -1.8054632 1.6173445 -0.6635563
-0.7178676 -0.4883164 0.31797266 1.2269174 -1.3786893 0.6466142 -0.5191 0.16257487
0.13156065 0.41255903 -0.4388778 -0.26331893 -0.35755166 1.2833475 -1.3370938 -0.51645327

layers.1.weight f4 [50, 20]
00000000: 7e51 24be 838d 413e cd57 f43b 5c64 11be
00000010: 467b 973b e9d2 4a3d e155 433e 4285 b93c
00000020: 66ea 6cbe 6124 72bd 00c9 7fbd 2834 b93d
00000030: eeec 263c 96eb d9bd e866 153e 8746 81bd
00000040: fc7c 2b3d dbed e9bd 06ed 023e 84db 0b3e
00000050: b5bc ad3d 2669 8c3d fcf7 a73d 00b6 243d
00000060: fac8 b53c 8645 6b3d 3b6f 913b c8ff 0a3d
00000070: 04cc 8cbd 48bd 4dbd a9db 02bd a5b5 54bd
00000080: ed0a 03bc 0d9c 00be 32cd e0bc f47c 7c3d
00000090: 0a46 213d 71a8 10be d1ea fcbc e207 1bbd
000000a0: 3c28 c33c 25c5 843b 77e6 593d 8c02 56bc
000000b0: 8d6e 9bbc d2dd babd 65cd 8abd 51f8 053d
000000c0: 9fdd 5abd 9021 d13d df91 c73c 8768 183c
000000d0: dfd9 4bbd 0474 c33d fd35 e6bc 1ef8 aabd
000000e0: c68c f1bc b526 0dbd 3fc0 3e3c 53fc 64bd
000000f0: 2984 a53d d66b 4abe 4963 383e 33c8 42bd
00000100: 96cb a7bd dedb e8bd 0083 e13d 71ba 253e
00000110: 0137 943d 1530 e13d 74fd a6bd 60f2 2c3c
00000120: 9cf6 44be 07cc f23d fb1c 4b3e f56a 71be
00000130: 3091 2dbd b75d dabc b4bf 87bd b435 383e
00000140: 98e8 a43d 612e 563d 511a c53d 33f6 333d
00000150: 5a35 26bd 32f4 bebd 4188 d43c 6237 9e3d
00000160: 05d4 d43c fc8c 65bd da08 64bd 6360 9dbc
00000170: 8919 eabc e39d 62bd 2d17 643d 3ff6 ac3d
00000180: 1556 143c 2384 fb3c 5111 823d e92c b2bc
00000190: 91f3 2dbc c177 573e f0e4 ba3c e1c3 863d
000001a0: 0bde 2abd 7ca2 9bbc 13f4 db3c 5b21 bb3c
000001b0: 4f9f c93d 7130 99bd 8e41 fb3d adc4 71bd
000001c0: bb1c 603d 2fbd 193e cdc9 83bd 6d03 a33d
000001d0: a8db 2c3e 0f3a 2e3e 2b3b a8bd 8a0c 403c
000001e0: 95ba 0c3e 848f 693c 7c52 a93d e2b6 6d3d
000001f0: 9400 153e 8402 3f3d d17f e53b 96e4 3d3b
00000200: e915 30be 7aee 953d 591c a33d 7c15 0dbe
00000210: e951 8dbc b263 63be 7239 20be b377 97bd
00000220: 5428 a63d 5f5e 36bd e391 0fbe 0cdc 09be
00000230: 56b1 d63d c37b 093e 4f8a ba3d d072 0f3d
00000240: 28bc 9c3d c931 54be ba2f e5bc 55ed 9f3d
00000250: 75e6 d63d 8573 39bd 7fe5 8a3c cff6 ec3d
00000260: 1c26 183d 649c aa3c 0dfb 12be b5cd 09be
00000270: 5db9 683d 3682 1f3d 4908 3ebe ab6f a6bd
00000280: c161 0fbc 4f41 7c3d f643 7abd ee6c 313e
00000290: 0875 9ebd 8539 10be 6660 66bc ce51 073e
000002a0: 31aa 18be 71d1 5b3d 619d 6dbd b145 743e
000002b0: 18c1 d63d ea28 863c 6e13 163d 445a 813d
000002c0: 5958 9ebe ed20 a53b 92bc 58be fc9f a93d
000002d0: 087e 90bd 8be1 8cbc f27a de3c e7a1 bb3d
000002e0: 28fb 053e f233 49bd 2ec1 dcbd e948 cf3d
000002f0: caf6 57bd 5a48 093e bd99 ec3c d82a cfbd
00000300: fa06 553e faf2 c2bd 830f 7ebd 5520 f1bd
00000310: 495e db3d ed58 bebd e27c 34bd 48c1 ac3d
00000320: 0c8a 0b3e d7d8 77bd d529 ff3d 3bda 4cbd
00000330: 17ab 7abe e166 283e c7af cf3c 8fa2 8cbd
00000340: 63d0 583e f066 903d 08a6 9fbd bbc6 883d
00000350: 4d16 febc ed4e 22bd cbce 4e3e 2c99 0bbe
00000360: 1b45 10bd 32b8 4c3d 1962 623e d739 90be
00000370: 5d4f 51be e292 7cbe dac5 4ebe 1c07 ad3d
00000380: f013 c1bd 15c5 3f3e 7f1a cfbd aebd 7d3c
00000390: bb89 68bd 7c1f 973c 1464 2c3e c3d4 f8bc
000003a0: bc9c 07be aceb c23b 849b 29be 9179 d73c
000003b0: 30a0 2d3e 7769 8ebe 31a5 dfbc 4319 a33d
000003c0: 0ce4 1b3d dcfa 383d 43a5 71bb f517 263d
000003d0: 39ac b4bd c139 9fbd d86e 053e ddce 7b3d
000003e0: d981 483d 762c 3e3d b2dd fe3d c9ce 64bd
000003f0: d1e1 15bd 3b10 813c 0fae d9bc 02de 1e3d
-0.16046712 0.18901639 0.0074567557 -0.1419844 0.0046228496 0.049517546 0.19075729 0.02264655
-0.23136291 -0.059116725 -0.062447548 0.09043151 0.010188324 -0.106406376 0.14590037 -0.0631228
0.04186724 -0.114223205 0.1278573 0.13657957 0.08483259 0.06855993 0.08201596 0.04021263
0.02219056 0.05743935 0.0044383085 0.03393534 -0.068748504 -0.05022934 -0.031947765 -0.051931042
-0.00799821 -0.12559529 -0.027441595 0.061642602 0.039373435 -0.14126755 -0.030873688 -0.037849315
0.023822896 0.004051822 0.053198304 -0.013062131 -0.018973613 -0.0912434 -0.06777457 0.032707516
-0.05343401 0.1021148 0.024361549 0.009302265 -0.049768325 0.095436126 -0.028101915 -0.08348106
-0.029486071 -0.034460742 0.011642515 -0.055904698 0.08081848 -0.19767699 0.18006624 -0.047554206
-0.08193128 -0.11370061 0.110113144 0.16184403 0.07237054 0.10995499 -0.08153811 0.010555834
-0.19234699 0.118553214 0.19835274 -0.23575957 -0.04237479 -0.026656015 -0.06628361 0.17989236
0.08052176 0.052290324 0.0962416 0.043935966 -0.040578224 -0.0932392 0.025943877 0.07725407
0.025980005 -0.056042656 -0.055672504 -0.019211 -0.02857663 -0.055326354 0.055686165 0.08445405
0.009053727 0.030702656 0.06350959 -0.02174993 -0.010617153 0.21041776 0.022814244 0.0658033
-0.041715663 -0.018998377 0.026849782 0.022843054 0.09844839 -0.074799426 0.12268363 -0.059025455
0.0547149 0.15013574 -0.06434975 0.07959638 0.16880667 0.17014335 -0.082144104 0.01172174
0.1374305 0.014255408 0.08267686 0.05803574 0.14551002 0.04663326 0.0070037623 0.002897536
-0.17195858 0.073208764 0.07964391 -0.13777727 -0.017250972 -0.22206 -0.15646914 -0.07395878
0.08113161 -0.044523593 -0.14020495 -0.13462847 0.10483043 0.13426118 0.091084115 0.035021603
0.076530755 -0.20722117 -0.02797686 0.07808939 0.10493175 -0.045276184 0.016955135 0.115705125
0.03714572 0.020826526 -0.14353581 -0.13457377 0.0568174 0.03894254 -0.18557848 -0.08126768
-0.008751334 0.06158572 -0.06109997 0.1732671 -0.07737166 -0.14084442 -0.014061069 0.132148
-0.14908673 0.053666536 -0.058011416 0.2385471 0.104860485 0.016376931 0.036639623 0.06316045
-0.3092678 0.0050393254 -0.21165684 0.08282468 -0.070552886 -0.017197391 0.027158234 0.0916174
0.1308409 -0.049121805 -0.107790336 0.101213284 -0.05272559 0.13406506 0.028881902 -0.10115594
0.20803443 -0.09519 -0.062026512 -0.11773745 0.10711343 -0.09294305 -0.04406441 0.08435303
0.1362688 -0.06050953 0.12459151 -0.05001281 -0.24479328 0.16445495 0.025352372 -0.06866943
0.21173243 0.07050884 -0.0779534 0.0667853 -0.031016493 -0.03962605 0.20196073 -0.13632649
-0.035222154 0.04998035 0.22107734 -0.28169128 -0.20440431 -0.24665406 -0.20192662 0.08448622
-0.09427631 0.18727525 -0.101124756 0.015487118 -0.056771975 0.01844763 0.16835052 -0.03037489
-0.13243383 0.0059485044 -0.16563231 0.026303085 0.16955638 -0.27814838 -0.02730045 0.07963803
0.03805928 0.045161113 -0.0036872185 0.04055019 -0.08821911 -0.077746876 0.13030565 0.061476577
0.048951957 0.04642912 0.12444629 -0.05586127 -0.03659231 0.01575481 -0.026572255 0.038785942

layers.1.bias f4 [50]
00000000: 69f7 063e 4822 d7be eec3 cabe b463 a7bd
00000010: 7d7a cabe ca83 e0be 0ba2 6ebe c880 c43d
00000020: 974c 64be 1282 b8be 1ef7 36be cf8f 833c
00000030: 037b a3be 2812 89be dfdc 903b c284 e93d
00000040: 0942 57be bad2 45be b255 913c c9fe 08bd
00000050: 300e f1be 3cee d3be a762 82be a1b0 f0be
00000060: 5ea3 bdbe f2c4 34bd 3d4d f6be 370c cfbe
00000070: bf66 43be ed65 203e c15a 29be b631 c53d
00000080: 2046 bbbe 22ab 98be 743d c5be acc3 b7be
00000090: 7648 ddbd fe95 01be f416 d6be 98b7 db3d
000000a0: ef30 e1be 3bb1 8ebe e889 adbe 864b e0be
000000b0: 9b63 d7be aea4 67be 0104 e2be 6e0f 40bd
000000c0: 8ce8 90be 3752 d1be
0.13180317 -0.42018342 -0.39602607 -0.08173314 -0.39546576 -0.43850547 -0.23304002 0.095948756
-0.22294842 -0.36036736 -0.17867705 0.016059784 -0.31929788 -0.26771665 0.004420861 0.11402275
-0.21021284 -0.19318667 0.017741058 -0.033446107 -0.47081137 -0.41392696 -0.2546589 -0.47009757
-0.37038702 -0.044133134 -0.48105803 -0.40439007 -0.19082163 0.15663882 -0.16538526 0.09628622
-0.3657694 -0.29818064 -0.38523448 -0.35891473 -0.108048365 -0.12654874 -0.41814387 0.10728377
-0.43982646 -0.2786959 -0.33894277 -0.4380762 -0.4206818 -0.22621414 -0.4414368 -0.046889715
-0.2830242 -0.40883037

layers.3.weight f4 [50, 50]
00000000: 1fd2 d03d bea9 babd b7c5 4cbd 1e82 b63d
00000010: aaf2 04be 3944 47be a00c 9ebd bc16 8d3c
00000020: d7af 25be 1f4c 49be 6ed3 673b c528 4e3d
00000030: a3be 013e 4ad9 09bd abcf eb3b 1edf bdbd
00000040: 448d b9bd 43d0 543c 5196 a33c 3770 463d
00000050: ae3f e43c dd4d 3f3d bf3f c9bc db7b d1bd
00000060: e5b5 39be f960 aebd e838 11be 9e8b 8bbc
00000070: cbd7 243d 481c 8b3d dc63 303d 0905 023c
00000080: 53eb 373d a3fd c43d e20e 23be 2b3f 48bd
00000090: 0a96 b5bc db5e 74bd e392 ebbd 30a9 42bd
000000a0: 0734 87bd 1c6a cbbc 0865 84bd 4aeb c8bd
000000b0: a6f1 04be e5e8 03be a986 c6bc 1608 b0bd
000000c0: 26e7 85bd 8463 3f3b 232e 55be 2d6d a03d
000000d0: e204 843d cdfa 0e3e 06b3 2bbe e676 d1bc
000000e0: 719b 62be 3b28 8c3d da57 063e 960a 3a3c
000000f0: ea57 083d 4afe d43d 8817 79be b908 3bbd
00000100: e310 81be da15 77be dbdc ea3d bd16 cebe
00000110: 818a 58be 5252 b73c 3bad 8cbe 4111 abbd
00000120: 339f 00be d422 2d3d 6028 cdbd b252 28bd
00000130: 6d63 e0bd 0d74 90bd 8d13 d4bd 7edc 90bd
00000140: 3efc 38be afb1 3bbe adbd b4bd d1dd 0ebe
00000150: c437 d4bd 99db 473d 479c abbe 38e3 8cbe
00000160: f696 923d fd19 0ebe caa7 f8bd a5b4 0dbe
00000170: 3842 f8bd 91aa 51be 7cf8 0d3d 6bf7 b2be
00000180: 6436 3a3d 9581 d6bd 8485 22be 89fa 033e
00000190: 572d 0f3e ff53 a0bd 4bcc 2e3d f842 bcbe
000001a0: 21d5 883d a922 bd3b 2622 c8be 889f 933d
000001b0: 7e5b afbd c31d 20be 729f b3be 5b8c 8abe
000001c0: 4707 99bd 6c5c 94be 3091 1c3d 49d6 773d
000001d0: c72e dbbe a917 cb3c e9d2 713c 4315 9dbe
000001e0: dd4c b5be 15ff 583c d148 f83d 336b 91be
000001f0: 8ce1 e1bd 93f1 103e 3311 8cbd c265 963c
00000200: e5d6 b0be 1cd8 8fbe dba2 4dbb d645 5b3e
00000210: 72d4 02bd 4052 e3bb 530e 033d e6cf b3bb
00000220: a800 493d c9be 27bd 3b6f 16bd f630 92be
00000230: 57c9 95be 26c0 2fbe 733d 59be 6723 3abd
00000240: 361e 5dbe 8ce7 ed3c f07d 1abe 6800 a13d
00000250: 4fbf f5bd 2992 3cbe 679e 3dbd 7634 b4bd
00000260: 0649 97bc a99e 11be 91c9 98ba 8fc2 0f3d
00000270: d5b6 c6bd 3878 b03d a618 f7bd c8b5 5fbd
00000280: 8832 9dbd 3938 e0bd 24c9 0dbe 1e10 6fbc
00000290: e0d3 23be 45f5 283d cd40 55be 7efc 763c
000002a0: f724 533d db31 30be 84a8 16be 16d3 c1bd
000002b0: 207e 5bbb 9e0f 7fbe 910d d8bc 0cb2 99bd
000002c0: cf7e b2bd b385 5fbe 8ca5 323d 8b10 663d
000002d0: 0ef0 693d 5ded 54be 86c8 50be f905 153e
000002e0: 5d54 3d3c 03d6 5f3d 4a3f 683d 042c 143c
000002f0: c1a9 263e dc4a 6d3c 8759 a93d 0dfb 43bd
00000300: fd7b 00bc bf7d b0be 9cac 06be 3ae3 24be
00000310: ec3d 99bd 94a7 643d 4a95 cd3d 4528 95bc
00000320: 8988 c9bd 3c5b 0fbc 9635 61bb 9a18 c6bc
00000330: c8f5 2bbd 2025 85bd e861 8abe 6954 46be
00000340: effb 893d 93c9 603c bdd5 64be 7690 04be
00000350: a31d 983d 515b 43be 8679 6fbd cd99 f4bd
00000360: 245c 74be df70 53bd 5474 13be 81fd 48be
00000370: 7471 163b ffe7 3dbd ffc0 fabc 913d 3ebe
00000380: 760b c23c e7eb e13b 39b9 38be f9f1 233c
00000390: b427 b0bd 15e8 473d aa3b c13d 4ff6 79be
000003a0: 1079 99bd 76ac db3c 127b fbbd 0fb7 c2bd
000003b0: b283 f8bd d746 06bd 8b6c efbd aa61 9bbd
000003c0: e17a 32bd b588 2abe b92b 6fbe c5f6 16bd
000003d0: 048b 8f3d 8a1f 713c 6eda 3ebe 268a 26bc
000003e0: 9dc0 73be 3bb4 d8bd 2a2c 403e 8fed 07be
000003f0: 48a9 173d 1ff4 06bd 8abe e2bd fbc8 bcbd
0.101963274 -0.09114407 -0.049993243 0.08911537 -0.12983194 -0.19459619 -0.07717252 0.017222755
-0.16180359 -0.19657944 0.0035373825 0.05033185 0.12670378 -0.03365449 0.007196387 -0.09271072
-0.090601474 0.012989107 0.019969137 0.04844686 0.027862396 0.046705116 -0.02456653 -0.10228702
-0.18135794 -0.0851459 -0.14181864 -0.017034348 0.04024486 0.067925036 0.043063983 0.007935771
0.044902157 0.0961869 -0.15923646 -0.048888367 -0.02216627 -0.059660774 -0.11502626 -0.04752463
-0.0660172 -0.02483087 -0.06464583 -0.09810503 -0.12982807 -0.12881811 -0.024234133 -0.08595292
-0.06538229 0.0029203603 -0.20818381 0.07833324 0.06446244 0.1396286 -0.16767511 -0.02556939
-0.22129609 0.06843611 0.1311945 0.011355063 0.033286966 0.10400064 -0.24325383 -0.045662615
-0.25208196 -0.2412943 0.11467906 -0.40251723 -0.21146585 0.02237812 -0.27475914 -0.083529
-0.1256073 0.042269543 -0.100174665 -0.04109449 -0.10956464 -0.07053385 -0.103552915 -0.070733055
-0.18064973 -0.183295 -0.0882524 -0.13951804 -0.10362199 0.04879341 -0.33517668 -0.27517104
0.071577 -0.13877101 -0.12141378 -0.13838442 -0.12122005 -0.20475222 0.0346608 -0.3495439
0.045462027 -0.104739346 -0.15871245 0.1288854 0.1398214 -0.07828521 0.042675298 -0.36769843
0.06681276 0.005771954 -0.39088553 0.072081625 -0.085623726 -0.15636353 -0.35082585 -0.27060208
-0.07472091 -0.28976762 0.0382244 0.060507093 -0.42809126 0.024791555 0.014759758 -0.30680284
-0.35410205 0.01324441 0.121232636 -0.284021 -0.11029348 0.14154653 -0.06839218 0.018359069
-0.34538952 -0.28094566 -0.0031377587 0.21413359 -0.031940885 -0.006937295 0.031996083 -0.00548743
0.04907289 -0.04095343 -0.03672717 -0.2855298 -0.29255173 -0.17163143 -0.21214847 -0.04544392
-0.21593556 0.029041074 -0.15087104 0.078614056 -0.1199938 -0.1841513 -0.046293642 -0.08799069
-0.018467437 -0.1422068 -0.0011656751 0.035097655 -0.09702841 0.0861668 -0.12065248 -0.05461672
-0.07675654 -0.109482236 -0.1384626 -0.014591245 -0.15998793 0.041249532 -0.20825501 0.015074847
0.051548924 -0.17206518 -0.14712721 -0.094640896 -0.0033491924 -0.24908301 -0.026373656 -0.07504663
-0.08715593 -0.21828346 0.04361491 0.05616812 0.0571137 -0.20793672 -0.20388994 0.1455306
0.011555758 0.054647457 0.056700982 0.009043697 0.16275693 0.01448318 0.08269029 -0.047846843
-0.007842061 -0.34470937 -0.13151783 -0.16102305 -0.07482514 0.055823877 0.1003824 -0.018207679
-0.09840495 -0.008749779 -0.0034364215 -0.024181653 -0.041982442 -0.06501222 -0.27027822 -0.19368137
0.06737506 0.013719934 -0.2234716 -0.12945732 0.07427528 -0.19077803 -0.058465503 -0.11943398
-0.23863274 -0.051621314 -0.14399844 -0.19627954 0.0022955807 -0.046363827 -0.030609606 -0.18578173
0.023687106 0.006894577 -0.18039407 0.010006421 -0.08601323 0.048805315 0.09435208 -0.24410366
-0.07493794 0.026815634 -0.12279333 -0.09507572 -0.12134494 -0.032782402 -0.11690625 -0.07586987
-0.043574218 -0.16653712 -0.23356523 -0.03685643 0.07008937 0.014716992 -0.18638012 -0.010164773
-0.23803945 -0.10581251 0.18766847 -0.13274215 0.037026674 -0.032947656 -0.11071499 -0.092180215

layers.3.bias f4 [50]
00000000: af52 c33e 7299 da3d 4f60 373e 878f 12be
00000010: 3536 713c c9fb 243e 7953 debd 0441 ad3e
00000020: ae54 413d d6e7 83bd 7d57 433e d68f 073e
00000030: ca6a 9b3e 78a8 653d debf 9ebc 0077 c1bd
00000040: 7099 823d b94c bc3e e93f 21bd 983a aa3d
00000050: bf6d 21be 699d 26be 2059 d13d 4e71 e8bd
00000060: 1b9f 3a3c e4bc 203e e9bc 2cbe 3185 1e3e
00000070: 220b 2b3e ff41 033e b79d 9e3d 677e 263d
00000080: 65c2 82bd 098e 97bd 9454 853d f200 6dbd
00000090: 5272 f63d 3556 14be ab3e 8a3e f305 27be
000000a0: f1c7 c3bd 7e5b 0b3d 323d 2cbd 8c4a 183e
000000b0: d0b8 4dbe 723b c63d fa64 223e 6a01 fabd
000000c0: c31e 88bc 1d1c 293c
0.3814902 0.106737986 0.17907833 -0.14312564 0.014722397 0.16111673 -0.10855765 0.33838665
0.047199897 -0.064407036 0.19076343 0.13238463 0.3035491 0.056068867 -0.019378599 -0.094465256
0.06376922 0.36777285 -0.03936759 0.08311957 -0.15764521 -0.16270985 0.10222077 -0.11349736
0.011390473 0.15697056 -0.16868939 0.15480496 0.16703466 0.12818144 0.077449255 0.04064789
-0.06384734 -0.07400138 0.065102726 -0.05786223 0.120335236 -0.1448601 0.27000937 -0.16310863
-0.0955962 0.0340228 -0.042050548 0.14872187 -0.20090032 0.09679307 0.15858832 -0.12207301
-0.01661623 0.010321644

layers.5.weight f4 [6, 50]
00000000: 964c 3bbd f590 1ebe 4c39 2c3c c5b9 a1bc
00000010: 4092 073c 595b 043d 5347 683c 954c b1bc
00000020: 13d8 1b3e f4c7 e33c 9984 8f3d 2f10 803e
00000030: ed55 2c3d 99b7 b33e 55db 013e 8af8 65bd
00000040: a71a 89bd b841 0abd 424b 71b9 2076 2c3e
00000050: b9af cb3b 274f 4dbc 8eed 2f3e e8a1 153e
00000060: c73f 8f3c 33a8 0c3d ac66 093d ea4d 9b3e
00000070: 1966 343d 7080 9dbc 0dbb e7bb 6e35 613b
00000080: af36 3a3c 3860 edbb cc6c 873d 3f36 b13c
00000090: 6604 2ebd 097d 03be b143 16be 5cfb d73d
000000a0: caac 9dbd db52 ba3c 2a95 073c 56c6 cbbc
000000b0: 6a90 eb3b 601f b4bd fdd3 5abb ef11 153d
000000c0: 1598 a3bb 4e0b 14bd c028 5cbd eada 15be
000000d0: 1b31 ae3c 211d df3c 39f4 313d 4652 c93d
000000e0: 43e8 d5ba 614a ebbc e227 8b3c a3ea d23b
000000f0: a745 d0ba 170d ff3d 2743 24bc c259 1fbd
00000100: 0b42 883d a4c4 8a3d a577 d33c d0d1 f53b
00000110: d822 a1bc 2c2c bb3d 5056 ad3c 663c 54bc
00000120: 27a3 153e b569 83bd ebdc 223d 3976 913d
00000130: 36e6 6fbd 5e35 c03d b337 903c 764f 103d
00000140: 4154 3cbc 97cc b23c 58d8 9bbb a82f 82bc
00000150: 2874 863d f2c4 bfbb 7a35 d2bb ae4c 0abd
00000160: d6e9 6abd c401 0cbe 88e9 2f3c edb6 33bd
00000170: c0fe 6d3c 5ef0 233b 6a48 bd3c 77a6 063d
00000180: 9cd1 c4bb 2b2b 89bd 1b70 0c3d 4ca4 fb3d
00000190: d261 97bd 6928 3cbd 9c3c 11bb c6f4 aabc
000001a0: e84b db3c 1e06 d73d c0e7 c63d 2919 71bc
000001b0: 934b 823d b0e1 093e 166a 633c 8058 213e
000001c0: d504 213c 3f4b a93d 0966 043e 16c0 343d
000001d0: dc20 64bb 0b5b 0b3a bffe 793c 007c 2a3e
000001e0: d81f 81bb b288 813d a1d5 053e 97cc 4a3d
000001f0: f00e 7fbb e9bc 3abd bd02 9339 a060 813d
00000200: 0761 57bd 1d8b 043c a1b0 323d caaa 1dbd
00000210: c2f9 78bd a007 c13c 66b6 2c3c 3d0d 09bd
00000220: a328 433d 6edb 133d f729 dcbd 2f8d 723c
00000230: 3a59 963b c13d d9bd 3398 d03d f544 b5bb
00000240: c3a6 a4bc a367 b63a 019c b53d ace2 933b
00000250: f9d6 bdbc c3bc 2e3c 1a9d 65bd 9ce4 40be
00000260: 4617 98bc 9aaa ba3c 7e06 19bb e6ed 8f3d
00000270: 6887 273d 8261 71bd 6153 f03d 6514 c63d
00000280: 7ed4 4cbd ca54 c43d d90f b93c 4e95 fc3d
00000290: b3f7 683d 3fcf 87b8 9183 3c3e 4abc 9ebd
000002a0: dbf3 a63a 4fcd 0a3e 26cf a1bb 00d0 dbbb
000002b0: 2921 4c3e 1f0b 643d 9f76 ac3c bfb4 2dbd
000002c0: 3f4e 8c3d 84c8 d03d 9b77 b03c 3d74 ca3c
000002d0: c8c7 233c 911a 7abd 07ae 1cbc 3aba 473c
000002e0: 8280 80bc 4015 b23c be0e 773d 05b0 643d
000002f0: 8c04 d2bd 49e2 b03d 04b4 1a3d 1782 ed3c
00000300: 83f6 fe3d ef89 763d 50ed 33bb 5467 183e
00000310: c36e 35bb 965b bc3c 8bef b7bc 300f 3d3b
00000320: 4ab7 16be 70f4 063e 7f72 b0bd 61f1 e63c
00000330: 9ead a2bc 6035 4c3e 5f50 ef3c 3f11 2dbe
00000340: 5a92 05bc 1c9e fc3c 4c8f 323e 576d e73c
00000350: 95db debd bf3b 163e 9075 1d3b 73f1 0f3d
00000360: bee9 f7bc 567f 38be 92a6 7fbc 6fd5 4b3d
00000370: 8937 f73b 7301 fc3a 780d a23d d8ec df3d
00000380: 62f2 0bbc 8573 a63b 5517 d03c aa9f 413e
00000390: 1bcd 5fbd bf0a 00bd f5ea 17bc e160 69bc
000003a0: d483 89bb 5c18 6639 7e3a b43c f9fd 84bb
000003b0: c5de 27bc 3e01 d63c 3eb0 7a3e a6d9 6cbd
000003c0: 5c31 12bd f838 de3d 0ebc 163e 1670 30bd
000003d0: 91a2 d6ba 5c39 6b3d 5617 9d3c 3a87 ef3a
000003e0: 0bc7 3abc f523 11bc 7ded 4fbe 4fa5 2cbe
000003f0: 2bad 6b3e 27d8 c5bb 452d 11bd 8114 543e
-0.045727335 -0.15484984 0.0105117075 -0.019741902 0.008274615 0.03231368 0.014177161 -0.021642962
0.15219145 0.027805306 0.07007713 0.25012347 0.042074133 0.3510101 0.12681325 -0.05614523
-0.06694537 -0.03375408 -0.00023011587 0.16841936 0.006216016 -0.012531078 0.17180464 0.14612544
0.017486466 0.034340095 0.03354518 0.3033288 0.04404268 -0.019226283 -0.0070718587 0.0034364122
0.011365577 -0.007244136 0.06612548 0.021632312 -0.042484663 -0.12840666 -0.1467426 0.1054599
-0.076989725 0.022744587 0.00827531 -0.024874847 0.0071888464 -0.08795047 -0.0033390515 0.036394056
-0.004992495 -0.036143593 -0.0537498 -0.1463429 0.02126365 0.02723557 0.0434458 0.098301455
-0.001631983 -0.02872199 0.016986791 0.0064366623 -0.0015889899 0.124536686 -0.010025776 -0.03890396
0.06653222 0.067757875 0.025813887 0.0075018182 -0.019669935 0.091392845 0.021159321 -0.012953853
0.14613019 -0.064166464 0.039761465 0.07102627 -0.058569156 0.09385179 0.017604684 0.03523203
-0.011494697 0.021826072 -0.004756015 -0.015891865 0.06565124 -0.005852335 -0.0064150663 -0.033764534
-0.05735191 -0.13672549 0.0107368305 -0.043875623 0.014526069 0.0025015096 0.023105819 0.032873597
-0.0060064327 -0.06697687 0.0342866 0.122871965 -0.073917046 -0.045936976 -0.002216137 -0.02086867
0.026769593 0.10499214 0.097121716 -0.014715471 0.06362071 0.13464999 0.013880273 0.15756416
0.009827812 0.08266305 0.12929548 0.0441285 -0.0034809625 0.00053159957 0.01525849 0.16648865
-0.0039405636 0.06324901 0.13069774 0.04951152 -0.0038918816 -0.045590315 0.00028040065 0.06317258
-0.052582767 0.008089808 0.043625478 -0.038492955 -0.060785063 0.023563206 0.010541534 -0.03345989
0.047646176 0.036097936 -0.10750192 0.014804169 0.0045882734 -0.10607482 0.1018528 -0.005531902
-0.02009905 0.0013916384 0.08867646 0.0045131054 -0.023173796 0.0106651215 -0.056058027 -0.18837208
-0.018565785 0.022786427 -0.0023349817 0.070277974 0.040900618 -0.05893088 0.11734653 0.09671859
-0.050007336 0.09586485 0.022590565 0.12333165 0.05687685 -6.475904e-05 0.18409564 -0.07750757
0.001273747 0.13554882 -0.004938024 -0.006708145 0.19934525 0.05567467 0.021052657 -0.0424087
0.06850862 0.10194495 0.021541407 0.02471363 0.009996362 -0.061060492 -0.009562976 0.012190396
-0.015686277 0.021738648 0.060316794 0.055831928 -0.102547735 0.086369105 0.037769333 0.028992696
0.12449362 0.060190137 -0.0027454682 0.14883167 -0.0027684427 0.02299289 -0.02245309 0.0028848164
-0.14718357 0.13179183 -0.086155884 0.02819127 -0.019858178 0.19942236 0.029213129 -0.1690111
-0.008152569 0.030837111 0.17437476 0.02825038 -0.10881726 0.14671229 0.0024026372 0.035142373
-0.030262824 -0.18017325 -0.015603678 0.049764093 0.007544462 0.0019226506 0.07912725 0.10933846
-0.008541675 0.005079689 0.02540175 0.18908563 -0.054638963 -0.03126025 -0.009272327 -0.014244289
-0.0041966233 0.00021943584 0.022000547 -0.004058596 -0.0102459835 0.02612364 0.24481294 -0.057824753
-0.035691604 0.1085071 0.14720175 -0.043075643 -0.0016375353 0.05742775 0.019176167 0.0018274554
-0.011399995 -0.0088586705 -0.20305438 -0.16859935 0.23015277 -0.0060377303 -0.035443563 0.20710947

layers.5.bias f4 [6]
00000000: e06a afbd 3782 b5bd d8e3 b6bd b544 19bd
00000010: 5c36 93be 2be2 4abe
-0.08565307 -0.08862727 -0.089301765 -0.03741904 -0.2875241 -0.19812839
