Tutorial7/classifier.pt (torch_old, 136899 bytes, 12 tensors)

conv1.weight f4 [64, 1, 3, 3]
-0.38246503 -0.2466971 0.27032632 -0.42837057 0.06717693 0.29999 -0.13890146 -0.005403332
0.008867587 0.29080236 0.2780688 0.38202238 -0.1958414 -0.09470835 0.24320765 0.07776289
-0.15361573 -0.3111429 -0.16175337 0.11723342 -0.31231984 -0.0557015 0.3098015 -0.06340355
0.25872144 0.018021654 0.115337685 0.22921732 0.20736034 -0.4853626 0.32340938 0.17224269
-0.38463953 -0.026953299 0.19402239 -0.18991992 0.015273375 0.11458296 0.36218813 -0.1263586
0.2478287 -0.23262474 0.19263178 -0.36916128 -0.35926703 -0.52608615 -0.49173802 0.13914852
0.27734828 0.3040051 -0.26112476 0.038322736 0.15927242 0.50296557 -0.287445 -0.11665025
0.22469671 0.23709315 0.29604498 -0.14374474 -0.052905694 0.2567231 -0.16022016 0.26625496
-0.09788533 0.04516046 -0.35750103 -0.053632047 0.22634058 -0.20005281 0.32230318 0.18849471
-0.07934379 0.24422406 -0.21012484 0.2615552 -0.035424873 -0.40044817 -0.33813152 0.47277915
0.09295107 0.27096474 0.010201537 0.28104892 0.11720674 0.35743734 0.23302774 -0.3664323
-0.46524927 -0.0285354 -0.09310971 0.10688596 0.36315578 0.02977331 0.47810647 0.3925089
-0.3489247 -0.26815146 -0.26871082 0.011743889 -0.044556797 0.35340607 -0.010734713 -0.21469997
0.36747262 -0.2897383 0.19402012 0.12112814 -0.20468983 0.20282438 0.0027914927 -0.37955606
-0.6518145 -0.5159887 -0.14835425 -0.076116666 0.018091023 0.16095407 -0.08010416 -0.0025124692
0.13863425 -0.14504053 -0.19738585 0.25250655 0.21418677 -0.058656707 -0.13819201 -0.10809211
-0.10300149 -0.042351604 -0.20353949 0.2851897 -0.1321029 0.32675493 0.27856243 -0.24798441
0.049449112 -0.12455903 -0.18072836 0.25673962 0.1436967 -0.042140134 0.2832748 0.13313963
0.11960547 -0.010265 0.4869933 -0.20939806 -0.16899751 0.31883594 -0.33037126 -0.009171844
0.07076529 0.2057809 -0.17692983 -0.34478095 -0.04032482 -0.21321198 -0.13836057 0.33380702
-0.11774769 0.326561 -0.13796878 -0.21964328 0.1298081 -0.16137056 -0.08654547 -0.18346517
-0.16136901 0.20683375 -0.18130629 -0.08497364 -0.27282986 0.21615507 0.0058195945 0.3553119
0.20508038 0.06378883 -0.20867671 -0.071812145 0.2080447 -0.253895 -0.370839 -0.18066703
0.17554873 0.3866949 -0.21452393 0.06616804 0.4383228 -0.010862726 0.28006676 0.28823036
-0.084698744 -0.12375135 -0.09814105 -0.47848737 -0.33968428 -0.35087645 -0.34457192 -0.3574647
0.022093864 -0.031517535 0.10548051 0.42773908 0.008880922 -0.24914342 -0.35170153 -0.17247756
-0.28469393 0.22774552 0.0626802 -0.1198315 -0.033849426 -0.098454826 0.33317208 0.293177
-0.19754457 -0.63455236 -0.43456206 -0.111244306 -0.015841503 -0.48800027 -0.04200186 0.12390542
-0.09480359 0.36080378 -0.2283573 -0.2240652 0.2596588 0.028700927 -0.10883913 0.46374038
-0.2670967 -0.23132546 0.41497296 -0.056625012 -0.008640201 -0.0063475547 -0.23422894 -0.23331311
0.3128881 0.19117133 -0.109951064 -0.3317993 0.15550978 -0.40282387 -0.345158 -0.35946
-0.25706786 -0.58252716 -0.5968108 -0.33773568 0.024082797 0.08048026 -0.21560079 -0.34944355
00000000: 75d2 c3be 2a9e 7cbe 3668 8a3e 6353 dbbe
00000010: 0f94 893d 4a98 993e 2f3c 0ebe 6f0e b1bb
00000020: 5b49 113c 0ce4 943e 095f 8e3e 7098 c33e
00000030: a68a 48be 74f6 c1bd 6d0b 793e 2642 9f3d
00000040: 714d 1dbe 1f4e 9fbe ada2 25be 1318 f03d
00000050: 63e8 9fbe 4227 64bd 4d9e 9e3e b8d9 81bd
00000060: 2377 843e 26a2 933c 2a36 ec3d f2b7 6a3e
00000070: 4556 543e 7281 f8be ea95 a53e 6360 303e
00000080: 79ef c4be 2acd dcbc cead 463e 5e7a 42be
00000090: 2e3d 7a3c 79aa ea3d b970 b93e 2664 01be
000000a0: cfc6 7d3e 2e35 6ebe 4441 453e b502 bdbe
000000b0: d9f1 b7be 95ad 06bf 16c5 fbbe f37c 0e3e
000000c0: 9800 8e3e 8ea6 9b3e 25b2 85be 4df8 1c3d
000000d0: 4f18 233e 5ac2 003f fe2b 93be 54e6 eebd
000000e0: e516 663e 8cc8 723e 3593 973e d231 13be
000000f0: a4b3 58bd 3671 833e c110 24be 9252 883e
00000100: 1b78 c8bd 2dfa 383d 600a b7be 47ad 5bbd
00000110: d3c5 673e a5da 4cbe ec04 a53e c204 413e
00000120: ff7e a2bd df15 7a3e f72a 57be 90ea 853e
00000130: ac19 11bd 8b07 cdbe 931f adbe 1c10 f23e
00000140: 215d be3d e4bb 8a3e 5924 273c a5e5 8f3e
00000150: 160a f03d 0702 b73e d39e 6e3e 049d bbbe
00000160: 2735 eebe 12c3 e9bc 4eb0 bebd 07e7 da3d
00000170: 8eef b93e 28e7 f33c 5fca f43e edf6 c83e
00000180: 42a6 b2be 264b 89be 7794 89be 7169 403c
00000190: 3081 36bd a4f1 b43e a6e0 2fbc 4fda 5bbe
000001a0: 5f25 bc3e 9458 94be 36ad 463e 0812 f83d
000001b0: 369a 51be 32b1 4f3e 7af1 363b 2c55 c2be
000001c0: 51dd 26bf d617 04bf 2dea 17be 0ee3 9bbd
000001d0: a033 943c 25d1 243e a60d a4bd 3da8 24bb
000001e0: 23f6 0d3e 8185 14be 841f 4abe 8a48 813e
000001f0: c753 5b3e 0442 70bd 3582 0dbe 655f ddbd
00000200: 72f2 d2bd e078 2dbd a86c 50be 6204 923e
00000210: fc45 07be 6c4c a73e bc9f 8e3e a0ef 7dbe
00000220: 278b 4a3d ce18 ffbd db10 39be 6073 833e
00000230: 3a25 133e 229b 2cbd 6509 913e c155 083e
00000240: b6f3 f43d 882e 28bc 3057 f93e 726c 56be
00000250: af0d 2dbe 773e a33e 6c26 a9be 8145 16bc
00000260: 64ed 903d 3ab8 523e 182d 35be 2187 b0be
00000270: a32b 25bd 3e54 5abe 65ae 0dbe c1e8 aa3e
00000280: b325 f1bd 0133 a73e b047 0dbe 2bea 60be
00000290: 6aec 043e 533e 25be c03e b1bd 4bde 3bbe
000002a0: eb3d 25be 3acc 533e 5ba8 39be a906 aebd
000002b0: 5bb0 8bbe c157 5d3e 4cb2 be3b 71eb b53e
000002c0: 9700 523e b8a3 823d 59af 55be 3f12 93bd
000002d0: ab09 553e 87fe 81be 9cde bdbe c700 39be
000002e0: 0cc3 333e e0fc c53e 29ac 5bbe 1c83 873d
000002f0: d96b e03e 93f9 31bc e964 8f3e ee92 933e
00000300: 8976 adbd 5971 fdbd 2dfe c8bd 4cfc f4be
00000310: 19eb adbe 14a6 b3be bb6b b0be 9d05 b7be
00000320: 31fe b43c 8818 01bd 2a06 d83d 9e00 db3e
00000330: 4981 113c 741f 7fbe 3912 b4be f59d 30be
00000340: 67c3 91be 1f36 693e 7a5e 803d 386a f5bd
00000350: b2a5 0abd afa2 c9bd 8895 aa3e 4c1b 963e
00000360: 2049 4abe 0672 22bf eb7e debe 0ed4 e3bd
00000370: 0ac6 81bc 2cdb f9be 240a 2cbd 20c2 fd3d
00000380: 6228 c2bd 46bb b83e 7fd6 69be 5971 65be
00000390: 00f2 843e 351e eb3c 0de7 debd 616f ed3e
000003a0: e6c0 88be 95e0 6cbe 5677 d43e a1ef 67bd
000003b0: a18f 0dbc 26ff cfbb b6d9 6fbe a2e9 6ebe
000003c0: de32 a03e 6bc2 433e 062e e1bd 99e1 a9be
000003d0: f53d 1f3e ee3e cebe 8db8 b0be 240b b8be
000003e0: 669e 83be 8020 15bf 98c8 18bf b1eb acbe
000003f0: 4949 c53c d6d2 a43d 74c6 5cbe 44ea b2be

conv1.bias f4 [64]
0.019004613 -0.20030151 -0.019770408 0.16305934 0.09482661 -0.09294917 0.0380061 -0.065081276
-0.11395272 -0.012751963 -0.008279071 -0.24037616 0.14146997 -0.05739905 -0.00979869 -0.04193169
-0.025500288 0.08293079 -0.28125346 -0.04895224 -0.0068556205 0.042161204 -0.017973999 -0.24364541
0.1230832 -0.006555195 -0.15333273 0.21434522 -0.23691922 0.23210226 0.33975655 0.0492563
-0.08730066 0.017263403 -0.005715445 -0.28836924 -0.008302604 0.006708549 0.09091757 0.10461317
-0.01761439 0.12203719 -0.14976355 -0.00556282 0.015081935 -0.31765735 -0.062213335 0.19568098
-0.0034364322 -0.054467272 -0.028543059 -0.2026907 -0.031449277 -0.013427344 0.10169753 -0.08339508
-0.22866309 -0.011644218 -0.18443973 0.16945146 -0.3188391 -0.22228731 -0.014867183 0.021486033
00000000: 90af 9b3c d71b 4dbe 8df5 a1bc 07f9 263e
00000010: 7434 c23d 225c bebd 49ac 1b3d 5549 85bd
00000020: 0b60 e9bd 9ced 50bc f1a4 07bc 2b25 76be
00000030: 81dd 103e 441b 6bbd af8a 20bc 90c0 2bbd
00000040: fbe5 d0bc 9ed7 a93d 7400 90be 2582 48bd
00000050: 1da5 e0bb 3ab1 2c3d 353e 93bc 2f7e 79be
00000060: 0b13 fc3d f6cc d6bb 4103 1dbe 507d 5b3e
00000070: f49a 72be 37ac 6d3e 92f4 ad3e f9c0 493d
00000080: b0ca b2bd fb6b 8d3c a148 bbbb 22a5 93be
00000090: a507 08bc 63d3 db3b fe32 ba3d 6e3f d63d
000000a0: 0e4c 90bc a2ee f93d 9e5b 19be 5148 b6bb
000000b0: 381a 773c fca3 a2be 69d3 7ebd 9860 483e
000000c0: c435 61bb 1319 5fbd 22d3 e9bc 278e 4fbe
000000d0: f5d0 00bd 5dfe 5bbc cb46 d03d 0acb aabd
000000e0: a826 6abe 64c7 3ebc c5dd 3cbe af84 2d3e
000000f0: e13e a3be 499f 63be 7c95 73bc 7a03 b03c

conv2.weight f4 [30, 64, 3, 3]
-0.046324674 -0.27860898 -0.1972664 -0.08485222 -0.20127295 -0.22811094 -0.049167223 -0.1843342
-0.30095932 -0.051770467 -0.049742557 -0.018929578 -0.0138668725 -0.24140252 -0.33249092 0.03656858
-0.07305876 -0.14224188 0.108693026 -0.044079993 -0.178086 0.11778809 0.052967172 -0.06007784
0.160161 0.035430364 0.05784083 0.19009289 0.08426551 -0.049520314 0.20944409 0.16851255
-0.009113335 0.16945782 0.094163686 0.0071370276 -0.13615501 0.13782696 0.18109941 -0.13291141
-0.15852693 -0.19309227 -0.030605141 -0.18694228 -0.22435144 0.06927562 -0.10366855 -0.23698439
0.04352142 0.044991754 0.020122532 -0.02874679 -0.068559505 0.04158683 0.119617544 0.012767912
-0.1377259 0.03723704 0.036599025 -0.07749993 0.050968427 0.028028037 -0.029130863 -0.027448883
-0.32550612 -0.27630356 0.028396614 -0.12930968 -0.16628025 0.05268812 -0.024903914 -0.092865735
0.2530844 0.10340747 0.06289078 0.2291706 0.4099735 0.3756817 0.17676401 0.17753594
0.28408435 -0.12790462 -0.2336718 -0.19120976 0.052088704 -0.11074705 -0.27716517 0.16396219
0.101283416 0.037346344 -0.060320485 -0.19879077 -0.24249682 0.0140533885 -0.23358297 -0.33071437
0.13416423 0.0922511 0.0020788815 0.02546501 -0.119617335 -0.098601125 0.004194256 -0.12199971
-0.16156843 0.053561814 -0.071803436 -0.10266375 -0.06285949 0.027775276 0.19475581 -0.20478383
-0.08158124 0.13018247 -0.32106042 -0.19264597 0.016371278 0.118563056 0.077679366 -0.08726504
0.1576571 0.066677846 -0.044105217 0.12944274 0.09159612 0.014245261 -0.012917743 -0.16570222
-0.18038273 0.016879791 -0.007705226 -0.04172158 -0.005083696 -0.03964929 0.0029910605 0.016337488
-0.11845382 -0.27344853 0.106173284 -0.037986886 -0.09047989 0.075778 0.048946932 -0.010851773
-0.033664662 -0.16799359 -0.27256122 -0.084882855 -0.3047718 -0.32726175 -0.046967916 -0.18186982
-0.23863147 0.048029337 0.06827598 0.08597907 0.01932194 0.18366252 0.23532908 4.1499075e-05
0.043925244 0.17986324 0.033816617 0.0067783706 0.041521717 0.03142109 -0.010057613 -0.031549197
0.0043476857 -0.009886902 -0.031750403 0.024569156 -0.11298359 -0.2034712 0.044433855 -0.108020194
-0.11640032 0.06323964 0.04392409 0.039759453 -0.12548642 -0.265308 -0.29418612 0.06844401
-0.0047269776 0.0114108855 0.06740802 0.12517141 0.17525479 -0.3308144 -0.21415038 -0.085433364
-0.3464572 -0.3283965 -0.105987504 0.016304 0.09331616 0.16639006 -0.10553626 -0.28038332
-0.32251325 0.16103749 0.10883495 0.096378684 0.37287205 0.33574763 0.26456395 0.066420384
-0.07558762 -0.10944199 -0.09478775 -0.08156824 -0.04764242 -0.10617423 -0.11816174 -0.14279084
0.01478415 0.11436611 0.270703 -0.07769651 0.12786329 0.32464257 -0.1897668 0.009984968
0.21059918 0.30774444 0.33351225 0.03782067 0.32668152 0.3265367 0.043459315 0.3141534
0.12655728 -0.14057493 0.30773482 0.32180482 0.16517237 0.18423337 0.17873076 0.15982606
0.17637296 0.043309733 -0.01094976 -0.1680337 0.02075327 0.2524631 -0.29624927 -0.1047444
0.13776374 -0.43716732 -0.13695109 0.075800635 -0.024735514 -0.06938392 -0.32687154 0.27596653
00000000: f1be 3dbd d6a5 8ebe 3400 4abe 00c7 adbd
00000010: 7f1a 4ebe ea95 69be 9263 49bd 1bc2 3cbe
00000020: 5717 9abe 450d 54bd dabe 4bbd 3412 9bbc
00000030: e131 63bc 3932 77be 403c aabe efc8 153d
00000040: d59f 95bd dba7 11be 739a de3d 398d 34bd
00000050: 2d5c 36be e23a f13d 1bf4 583d 2e14 76bd
00000060: 3f01 243e 6e1f 113d 82ea 6c3d b6a7 423e
00000070: 6593 ac3d d0d5 4abd 8378 563e 8e8e 2c3e
00000080: 1950 15bc 5a86 2d3e e4d8 c03d badd e93b
00000090: 386c 0bbe 8322 0d3e 2072 393e ee19 08be
000000a0: e254 22be fbb9 45be a2b7 fabc cc6d 3fbe
000000b0: 62bc 65be 60e0 8d3d 2d50 d4bd 09ac 72be
000000c0: 8443 323d 4649 383d 02d8 a43c 637e ebbc
000000d0: ed68 8cbd f456 2a3d 0bfa f43d 8130 513c
000000e0: 0508 0dbe de85 183d dce8 153d 49b8 9ebd
000000f0: 45c4 503d 0e9b e53c d9a3 eebc 7bdc e0bc
00000100: bda8 a6be a977 8dbe 04a0 e83c c269 04be
00000110: 5f45 2abe 80cf 573d 4b03 ccbc 6430 bebd
00000120: 4794 813e 4cc7 d33d e2cc 803d b3ab 6a3e
00000130: 0ce8 d13e 5a59 c03e a001 353e fbcb 353e
00000140: 8173 913e 6ef9 02be a947 6fbe 7ecc 43be
00000150: f75a 553d 59cf e2bd 98e8 8dbe b4e5 273e
00000160: ae6d cf3d 7bf8 183d 9d12 77bd cf8f 4bbe
00000170: 1651 78be 2f40 663c 6030 6fbe 6553 a9be
00000180: 5962 093e 25ee bc3d d83d 083b ff9b d03c
00000190: eff9 f4bd 63ef c9bd f86f 893b fcda f9bd
000001a0: 3272 25be a263 5b3d ae0d 93bd 5f41 d2bd
000001b0: 7abc 80bd fa88 e33c 116e 473e dab2 51be
000001c0: 1114 a7bd 8e4e 053e 0862 a4be fc44 45be
000001d0: 0f1d 863c 30d1 f23d 5c16 9f3d 03b8 b2bd
000001e0: dd70 213e 658e 883d aca7 34bd a38c 043e
000001f0: bf96 bb3d f564 693c f1a4 53bc d8ad 29be
00000200: 40b6 38be 7d47 8a3c 1f7c fcbb 3fe4 2abd
00000210: 2295 a6bb 4b67 22bd ab05 443b 32d6 853c
00000220: eb97 f2bd 7201 8cbe 6171 d93d 2398 1bbd
00000230: 854d b9bd 7f31 9b3d 947c 483d a3cb 31bc
00000240: f5e3 09bd 8306 2cbe 258d 8bbe 10d7 adbd
00000250: 0d0b 9cbe da8e a7be 6e61 40bd 153c 3abe
00000260: cf5b 74be 69ba 443d 47d4 8b3d cb15 b03d
00000270: 0c49 9e3c 0712 3c3e 1bfa 703e 4b0f 2e38
00000280: f5ea 333d 122e 383e 4b83 0a3d 181d de3b
00000290: ad12 2a3d 67b3 003d b0c8 24bc bb39 01bd
000002a0: 0877 8e3b acfc 21bc b60c 02bd 4145 c93c
000002b0: f163 e7bd c15a 50be 4600 363d b139 ddbd
000002c0: 4a63 eebd c983 813d bfe9 333d cfda 223d
000002d0: 837f 00be 73d6 87be 909f 96be 602c 8c3d
000002e0: c3e4 9abb b9f4 3a3c 370d 8a3d ef2c 003e
000002f0: fe75 333e 8160 a9be 3d4a 5bbe b0f7 aebd
00000300: d762 b1be 9623 a8be fa0f d9bd f78f 853c
00000310: 8b1c bf3d 2862 2a3e 6523 d8bd 678e 8fbe
00000320: 7520 a5be 03e7 243e dce4 de3d 3062 c53d
00000330: 16e9 be3e 1de7 ab3e ed74 873e 6907 883d
00000340: afcd 9abd 1f23 e0bd 1420 c2bd 400d a7bd
00000350: b324 43bd e071 d9bd c8fe f1bd c337 12be
00000360: 3839 723c c738 ea3d 9599 8a3e 591f 9fbd
00000370: 98ee 023e 8d37 a63e 3a52 42be fe97 233c
00000380: 50a7 573e ae90 9d3e 1ec2 aa3e d9e9 1a3d
00000390: cd42 a73e d12f a73e 6502 323d b7d8 a03e
000003a0: 3b98 013e e0f2 0fbe 6b8f 9d3e 9ac3 a43e
000003b0: f222 293e aca7 3c3e 3205 373e 71a9 233e
000003c0: 1d9b 343e 8c65 313d 9f66 33bc 0711 2cbe
000003d0: c302 aa3c d842 813e fcad 97be 3b84 d6bd
000003e0: f011 0d3e 65d4 dfbe e83c 0cbe 5d3d 9b3d
000003f0: 22a2 cabc 2819 8ebd b55b a7be 7c4b 8d3e

conv2.bias f4 [30]
0.0041646142 0.037078608 -0.018236544 0.06598667 0.022256196 0.0915972 0.0032602085 -0.024700336
0.0050357236 0.051047683 0.034104187 0.089459814 -0.010780614 0.041520182 0.011779732 0.041326758
-0.038399186 -0.02625749 -0.024025274 -0.035973996 0.054554213 -0.003451663 0.07756477 -0.04899308
0.05807519 0.0060558035 -0.032967225 -0.007484338 0.0031808503 0.006405331
00000000: 5177 883b bddf 173d ce64 95bc 0524 873d
00000010: a052 b63c 5097 bb3d 39a9 553b 5c58 cabc
00000020: b602 a53b 6017 513d d5b0 0b3d b536 b73d
00000030: 2ca1 30bc 1111 2a3d c7ff 403c 3f46 293d
00000040: 7748 1dbd f319 d7bc a7d0 c4bc 7859 13bd
00000050: 3d74 5f3d 4c35 62bb 47da 9e3d f8ac 48bd
00000060: 40e0 6d3d c36f c63b a408 07bd 2d3f f5bb
00000070: d075 503b d0e3 d13b

conv3.weight f4 [20, 30, 3, 3]
0.15839337 0.19291674 0.031338267 0.14376915 0.09146093 -0.017424906 0.16286321 0.038527656
-0.24094217 0.1027104 -0.03656514 -0.17998193 0.042978 -0.052540127 -0.18386458 0.1266057
-0.15216374 -0.14395669 -0.0110675655 -0.023222681 -0.0068573337 -0.068787664 -0.030192478 -0.024314363
-0.02683795 3.7559505e-05 -0.020186998 0.10820417 0.12203483 0.12926413 0.09689731 0.016146503
-0.027697917 -0.04841304 0.123409405 -0.02552303 -0.001717174 0.037448734 0.020065522 0.040503785
0.025910078 -0.011841433 -0.046533264 -0.03646142 -0.02903733 -0.10472586 -0.008437064 0.0073162178
-0.040143464 0.018981777 0.05437243 -0.016297033 0.046197735 0.17781739 -0.0036568758 0.025277447
-0.05592258 0.041474428 0.023063457 0.0415434 0.0051391134 0.01014386 0.01969143 0.04854388
-0.12431171 -0.22135377 -0.0501199 -0.19633748 -0.33390397 -0.05971202 -0.11811889 -0.27420682
0.1509672 0.066587806 -0.14347197 0.14161336 -0.03326088 -0.14629094 0.10867817 0.044366833
-0.24833606 0.10866937 0.092939906 -0.07193272 0.11143924 0.06825514 -0.109381 -0.0030472712
0.0030312035 -0.0813794 0.08300961 -0.13855942 -0.2558281 0.06795108 -0.21329083 -0.1463371
-0.18669003 -0.23384452 -0.12008523 -0.06048056 -0.19798034 -0.16378343 -0.08983465 -0.18967545
-0.0537971 -0.13008791 -0.17373717 -0.026617378 0.00994215 -0.041559774 -0.033612292 -0.01855304
-0.006692309 -0.03899875 0.046395402 -0.03754922 0.050819412 -0.021524727 0.03394109 -0.012001932
-0.06911028 0.015661726 -0.08323335 0.023871837 0.018160552 0.041015718 0.14502877 0.12516823
0.040316682 0.15646002 0.018200332 -0.09754627 0.15442882 0.012290229 -0.24835576 0.02513586
0.007461301 -0.07119365 0.042115513 0.04170373 -0.030346096 0.14972466 0.1445223 0.061858725
-0.052198686 0.06377749 -0.03925238 0.001317617 0.050763346 -0.04623894 0.031306103 -0.033463407
-0.026773065 -0.01540323 -0.06620645 0.056139324 -0.039542872 0.045333862 0.013744088 0.015278007
-0.004354714 -0.014133356 0.0063789478 0.055718284 0.034007166 0.012013565 0.017953413 0.038906813
0.025657004 -0.0029096417 -0.026333861 0.029166665 -0.007548585 -0.019245885 0.017289411 0.04216451
-0.003979313 -0.03937599 0.021309543 -0.052518953 -0.028354855 -0.12277951 -0.17642201 0.047778714
-0.12301979 -0.072344005 -0.07998968 -0.29392862 -0.18726525 -0.060230948 0.013856836 -0.028995499
-0.03765587 -0.014298833 0.020815095 0.01444393 -0.020708483 0.052370932 0.060762845 -0.03947973
-0.15443704 0.15228863 -0.083806925 -0.14353676 0.059518144 -0.23808305 -0.25181386 -0.024958773
0.0049216747 -0.012040716 0.031291656 -0.043518 -0.04761927 -0.031384856 -0.011894569 0.043526992
0.006442454 -0.01000034 -0.095630616 0.105046056 -0.07070248 -0.06678803 -0.048976466 -0.10906421
-0.06431253 0.043690152 -0.053830095 0.033779822 0.018997582 0.032328434 -0.00049730483 -0.022229679
0.042292234 -0.06774642 0.050010215 -0.028532986 -0.014847215 0.05321437 0.03789391 0.0042568464
0.020414686 -0.029417051 -0.042416755 0.12952746 0.0037541399 -0.030544363 0.09226476 0.07570925
-0.022294724 0.084465496 -0.051370922 -0.116812974 -0.018964762 -0.005101048 0.015294325 0.008937178
00000000: df31 223e f78b 453e 8e5c 003d 3838 133e
00000010: de4f bb3d adbe 8ebc 9dc5 263e 2dcf 1d3d
00000020: 8bb9 76be d559 d23d 54c5 15bd 2f4d 38be
00000030: b309 303d 5134 57bd ff46 3cbe eda4 013e
00000040: d0d0 1bbe 6269 13be bc54 35bc 7e3d bebc
00000050: 7cb3 e0bb 8ce0 8cbd 3756 f7bc ea2e c7bc
00000060: 43db dbbc 3689 1d38 345f a5bc 269a dd3d
00000070: 66ed f93d d15d 043e 1972 c63d ac45 843c
00000080: bee6 e2bc c04c 46bd 12be fc3d ac15 d1bc
00000090: cc12 e1ba d863 193d 7360 a43c 4ce7 253d
000000a0: 5f41 d43c 9202 42bc aa99 3ebd 9258 15bd
000000b0: b2df edbc 837a d6bd 9c3b 0abc e2bc ef3b
000000c0: 796d 24bd ac7f 9b3c a0b5 5e3d 5b81 85bc
000000d0: d639 3d3d c315 363e 32a8 6fbb a612 cf3c
000000e0: 130f 65bd 17e1 293d 93ef bc3c 6a29 2a3d
000000f0: 0266 a83b 6f32 263c ec4f a13c f3d5 463d
00000100: 2397 febd 90aa 62be 864a 4dbd b10c 49be
00000110: 76f5 aabe 9794 74bd 51e8 f1bd d664 8cbe
00000120: 2597 1a3e 305f 883d 51ea 12be 1803 113e
00000130: 8f3c 08bd 4bcd 15be a992 de3d ffb9 353d
00000140: cf4b 7ebe 0c8e de3d 4757 be3d 7651 93bd
00000150: 423a e43d 5ac9 8b3d 2503 e0bd bab4 47bb
00000160: 28a7 463b 3eaa a6bd f100 aa3d 85e2 0dbe
00000170: e7fb 82be f029 8b3d e968 5abe 65d9 15be
00000180: ac2b 3fbe f074 6fbe 3fef f5bd 77ba 77bd
00000190: 5cbb 4abe d8b6 27be 3bfb b7bd 483a 42be
000001a0: 595a 5cbd c435 05be 28e8 31be b00c dabc
000001b0: 66e4 223c 953a 2abd 0bad 09bd 8cfc 97bc
000001c0: 284b dbbb 27bd 1fbd 1b09 3e3d 36cd 19bd
000001d0: 0428 503d a054 b0bc d005 0b3d c0a3 44bc
000001e0: b189 8dbd 054d 803c 3f76 aabd df8e c33c
000001f0: 70c5 943c 1900 283d 6c82 143e 1a2c 003e
00000200: 1b23 253d 0e37 203e dd18 953c 57c6 c7bd
00000210: 9722 1e3e f55c 493c f950 7ebe b8e9 cd3c
00000220: ee7d f43b facd 91bd 5181 2c3d 88d1 2a3d
00000230: 6098 f8bc 6c51 193e a7fd 133e 935f 7d3d
00000240: 4ace 55bd c69d 823d 1bc7 20bd e4b3 ac3a
00000250: 3aed 4f3d 0b65 3dbd d43a 003d ed10 09bd
00000260: 3053 dbbc d45d 7cbc 3f97 87bd 59f2 653d
00000270: b5f7 21bd 00b0 393d e22e 613c 9b50 7a3c
00000280: fdb1 8ebb 978f 67bc 7e06 d13b db38 643d
00000290: 194b 0b3d 8bd4 443c 0913 933c c05c 1f3d
000002a0: a32e d23c b0af 3ebb 1cba d7bc eeee ee3c
000002b0: 1f5a f7bb 8ca9 9dbc 86a2 8d3c b1b4 2c3d
000002c0: e664 82bb b848 21bd 5a91 ae3c 1d1e 57bd
000002d0: 7148 e8bc d373 fbbd f9a7 34be 9db3 433d
000002e0: cdf1 fbbd 1829 94bd a1d1 a3bd d07d 96be
000002f0: 76c2 3fbe bab4 76bd c807 633c f887 edbc
00000300: 0b3d 1abd a745 6abc 6b84 aa3c 3ca6 6c3c
00000310: d6a4 a9bc e782 563d 76e2 783d 7fb5 21bd
00000320: be24 1ebe 8df1 1b3e f7a2 abbd 4dfb 12be
00000330: 4cc9 733d 0bcc 73be bfed 80be 5776 ccbc
00000340: 0046 a13b 6c46 45bc ae2b 003d ee3f 32bd
00000350: 6c0c 43bd 688d 00bd 70e1 42bc 5c49 323d
00000360: 391b d33b 77d8 23bc fcd9 c3bd 6322 d73d
00000370: 76cc 90bd 2ac8 88bd 8c9b 48bd 0e5d dfbd
00000380: 4ab6 83bd 72f4 323d f27c 5cbd b65c 0a3d
00000390: d1a0 9b3c d26a 043d 905d 02ba 041b b6bc
000003a0: 9f3a 2d3d a3be 8abd 83d7 4c3d 02be e9bc
000003b0: bc41 73bc 50f7 593d a536 1b3d 047d 8b3b
000003c0: b33c a73c 07fc f0bc 31bd 2dbd d9a2 043e
000003d0: 0408 763b 2c38 fabc 4ef5 bc3d 740d 9b3d
000003e0: 6da3 b6bc 3ffc ac3d 516a 52bd a43b efbd
000003f0: fd5b 9bbc b126 a7bb 0c95 7a3c 3e6d 123c

conv3.bias f4 [20]
0.07356391 0.012409035 0.093001 0.093909174 0.12632386 0.05088992 0.09329553 -0.03528868
0.03103868 -0.0015146326 -0.025616793 0.10096687 0.027413696 0.0040587652 -0.022739528 -0.053768888
-0.04814521 0.08294286 0.07291874 -0.0088118855
00000000: ada8 963d 444f 4b3c 4f77 be3d 7453 c03d
00000010: 0b5b 013e f371 503d ba11 bf3d dd8a 10bd
00000020: d444 fe3c a386 c6ba 4fda d1bc b8c7 ce3d
00000030: b092 e03c 64ff 843b 3f48 babc c43c 5cbd
00000040: e933 45bd f2dd a93d 6c56 953d ba5f 10bc

conv4.weight f4 [10, 20, 3, 3]
-0.11523339 0.013506252 -0.02981298 -0.017779347 -0.023800993 -0.019501703 0.01673576 -0.054454964
-0.057210118 -0.0116600385 0.008800787 -0.01917056 -0.055352166 -0.008334274 -0.02701896 -0.039344132
0.01011153 0.0394688 -0.052323554 -0.04344107 -0.054987833 -0.02413214 -0.0345717 -0.038112905
0.010576313 -0.023558717 -0.03649868 0.06273366 -0.082131185 0.014600177 -0.029704431 -0.0011139584
-0.087940015 -0.06200239 -0.060057066 0.021525303 -0.087214515 -0.056817975 -0.00012624261 0.014525696
-0.005845343 -0.014740395 0.041592292 -0.040430818 -0.08157559 -0.057542324 -0.012694108 -0.033882428
-0.03268112 -0.07601969 -0.062379297 -0.021055894 -0.041857127 -0.012506777 0.022016266 0.005124248
-0.018356808 0.01882428 0.05583173 -0.01467592 -0.0757816 0.037062112 -0.025114834 -0.013411429
0.03346786 0.009768582 0.032337584 0.05528618 0.01901697 -0.040863037 0.06827989 -0.04182701
0.049661983 -0.035379242 -0.093278445 -0.073729225 -0.049932025 -0.011109615 -0.0018671318 0.0261559
-0.06839052 -0.056714304 -0.115216784 -0.03642368 -0.03700404 -0.038949512 -0.0057044863 0.048727073
-0.07226474 -0.028102234 0.032696195 0.067138396 -0.06859606 0.03298808 -0.0028124154 -0.052040275
0.0003741458 -0.006714709 0.018720932 -0.028326347 -0.08586048 -0.044546034 -0.050954476 -0.08290695
-0.01814461 -0.030281272 -0.106369436 0.0028044393 -0.07196458 0.043222662 -0.06044711 0.014781431
-0.059931062 0.013334896 -0.059208214 0.0040914477 -0.041430067 0.02516929 0.047468435 -0.04524276
-0.020080732 0.001794984 -0.08519962 -0.017421283 -0.018700045 0.021863716 -0.01775952 0.01894249
-0.01409743 0.06319847 0.057392977 -0.033301324 0.04447508 0.07294174 -0.016708288 0.014866091
0.0016815141 0.042532876 0.067439996 -0.008533888 -0.05253858 -0.023290321 -0.0041748434 -0.012882743
0.032767966 0.037660085 0.056525625 0.03631533 -0.0332851 -0.07294378 0.054810487 -0.027112536
0.054317854 0.013551028 -0.033280585 -0.066383965 0.045724303 -0.10249872 -0.0074177478 0.00889472
0.04728789 -0.039694503 -0.03068893 -0.002526883 -0.05304457 -0.012596057 -0.0023169122 -0.11833367
0.039209913 -0.09000165 0.016011652 0.0007468287 0.030833585 -0.0018486982 -0.03357404 -0.109776214
-0.06571497 -0.04837417 -0.056020036 0.0015705437 0.051010963 0.06079989 0.17607015 0.03152066
0.0257534 -0.028572017 -0.0085107405 -0.19883038 -0.2540091 0.124470495 0.17534074 -0.02898425
0.032733403 -0.12581407 0.07887822 -0.14721504 -0.0717153 0.079681896 0.011352502 0.077868626
0.21067315 -0.013831399 -0.06655314 -0.034220453 -0.07393054 -0.29915598 -0.4410059 -0.04261438
-0.008786588 -0.022760924 -0.17532793 -0.04184879 0.08128101 0.037493277 0.14425556 0.14046164
0.022420205 0.12311778 0.054213934 0.031576637 0.031576905 -0.12553175 -0.06120272 -0.1023252
-0.004450089 -0.06811994 -0.20353265 -0.0395176 -0.2272361 -0.30236864 -0.17948663 -0.022685438
-0.03442244 -0.1429255 0.069028005 0.11508139 0.046069913 -0.059812497 -0.050534513 0.02652104
-0.030012883 0.07735155 0.157103 -0.017827177 0.009024305 -0.027490819 0.029810918 -0.016579274
-0.025470011 -0.01962626 0.03771343 0.039932575 0.022780634 0.13855545 0.08502343 0.01926989
00000000: 7cff ebbd 5449 5d3c 5a3a f4bc fea5 91bc
00000010: 4dfa c2bc 09c2 9fbc 6f19 893c 2b0c 5fbd
00000020: 2855 6abd bf09 3fbc 2d31 103c 940b 9dbc
00000030: f4b8 62bd 7b8c 08bc de56 ddbc 5027 21bd
00000040: d5aa 253c 09aa 213d 3951 56bd 43ef 31bd
00000050: ec3a 61bd c4b0 c5bc 0e9b 0dbd 471c 1cbd
00000060: 4648 2d3c 36fe c0bc a47f 15bd 817a 803d
00000070: 6534 a8bd 9535 6f3c b556 f3bc 3e02 92ba
00000080: e519 b4bd 38f6 7dbd 66fe 75bd d555 b03c
00000090: 869d b2bd f7b9 68bd fe5f 04b9 2ffd 6d3c
000000a0: 4b8a bfbb b381 71bc ae5c 2a3d c99a 25bd
000000b0: 1a11 a7bd 80b1 6bbd f3fa 4fbc 4dc8 0abd
000000c0: a3dc 05bd 36b0 9bbd 6f81 7fbd 697d acbc
000000d0: 6172 2bbd 3ae9 4cbc 755b b43c 4fe9 a73b
000000e0: 0461 96bc 6035 9a3c d0af 643d 4573 70bc
000000f0: 6233 9bbd 71ce 173d a0bd cdbc 9cbb 5bbc
00000100: 9815 093d 670c 203c 6a74 043d c373 623d
00000110: 7ac9 9b3c 0060 27bd 54d6 8b3d cd52 2bbd
00000120: 5d6a 4b3d d3e9 10bd c508 bfbd 59ff 96bd
00000130: 8685 4cbd 1a05 36bc 8cba f4ba e644 d63c
00000140: 5410 8cbd 424d 68bd c7f6 ebbd ff30 15bd
00000150: 8c91 17bd 8689 1fbd b3ec babb 0a96 473d
00000160: 89ff 93bd a836 e6bc 72ec 053d db7f 893d
00000170: 177c 8cbd 821e 073d 8050 38bb 2f28 55bd
00000180: 0029 c439 1007 dcbb a45c 993c a80c e8bc
00000190: 9fd7 afbd e775 36bd a4b5 50bd 1ecb a9bd
000001a0: 01a4 94bc 6e10 f8bc 38d8 d9bd afca 373b
000001b0: 2a62 93bd 3f0a 313d 6497 77bd d12d 723c
000001c0: 467a 75bd 9c7a 5a3c 5084 72bd 8d11 863b
000001d0: 93b2 29bd d42f ce3c 436e 423d 7950 39bd
000001e0: 5980 a4bc ab45 eb3a 237d aebd 14b7 8ebc
000001f0: d630 99bc 891b b33c 6a7c 91bc 482d 9b3c
00000200: e8f8 66bc 336e 813d e614 6b3d f866 08bd
00000210: 802b 363d 7b62 953d d2df 88bc e890 733c
00000220: 4066 dc3a f436 2e3d fb1d 8a3d b8d1 0bbc
00000230: b232 57bd 58cb bebc 20cd 88bb 2412 53bc
00000240: b437 063d 7641 1a3d 6a87 673d 62bf 143d
00000250: f555 08bd 8c63 95bd f680 603d 1c1b debc
00000260: 667c 5e3d 2205 5e3c 3951 08bd 51f4 87bd
00000270: 6849 3b3d d9ea d1bd 9410 f3bb 29bb 113c
00000280: f2b0 413d b496 22bd 5a67 fbbc 109a 25bb
00000290: 4345 59bd b15f 4ebc 56d7 17bb ec58 f2bd
000002a0: 939a 203d c952 b8bd de2a 833c d3c6 433a
000002b0: b796 fc3c 0550 f2ba ef84 09bd 5ad2 e0bd
000002c0: 9295 86bd fe23 46bd 4475 65bd b4da cd3a
000002d0: dff0 503d 4e09 793d bc4b 343e cf1b 013d
000002e0: cbf8 d23c dd0f eabc a270 0bbc 319a 4bbe
000002f0: 7b0d 82be 63ea fe3d 868c 333e 6170 edbc
00000300: 7613 063d 67d5 00be e78a a13d 8abf 16be
00000310: 79df 92bd 4330 a33d d8ff 393c 9679 9f3d
00000320: b4ba 573e 189d 62bc 034d 88bd bf2a 0cbd
00000330: e568 97bd f92a 99be 86cb e1be 6b8c 2ebd
00000340: 9ff5 0fbc 1e75 babc 2a89 33be a369 2bbd
00000350: a876 a63d 8d92 193d bbb7 133e 2dd5 0f3e
00000360: 94aa b73c 2d25 fc3d 6e0f 5e3d 8156 013d
00000370: c956 013d 658b 00be b4af 7abd e08f d1bd
00000380: 0dd2 91bb 7882 8bbd dd6a 50be 35dd 21bd
00000390: 95b0 68be 10d0 9abe 58cb 37be d0d6 b9bc
000003a0: 8bfe 0cbd 105b 12be 8e5e 8d3d cbaf eb3d
000003b0: ceb3 3c3d f3fd 74bd 47fd 4ebd a742 d93c
000003c0: 94dd f5bc 7d6a 9e3d 9cdf 203e 4d0a 92bc
000003d0: aeda 133c 6d34 e1bc 0736 f43c 42d1 87bc
000003e0: 7ca6 d0bc 40c7 a0bc 6679 1a3d 5790 233d
000003f0: 749e ba3c 7be1 0d3e c420 ae3d e3db 9d3c

conv4.bias f4 [10]
-0.098258145 -0.00020601448 -0.062135156 0.031086463 0.08610195 0.050787084 0.111458406 0.07164441
-0.02125469 0.050494958
00000000: 913b c9bd 9705 58b9 6f81 7ebd 0aa9 fe3c
00000010: 3856 b03d 1e06 503d 4e44 e43d 4eba 923d
00000020: 511e aebc cdd3 4e3d

fc1.weight f4 [50, 160]
0.02089749 -0.039878 0.024127971 -0.04263711 -0.049929775 -0.044905536 -0.054036237 0.010449012
0.038694974 0.002161213 -0.018305343 -0.034466486 0.023391781 -0.06513677 -0.014177299 0.00054265175
0.010630003 -0.073813945 0.040962588 0.084921226 0.016992526 0.0068322406 -0.02409045 -0.025554894
0.018177683 -0.019214185 0.17943662 0.22844663 -0.067934185 0.067375936 0.121468924 -0.027392736
0.05336859 0.10655148 0.16105448 0.0070492127 0.058777224 0.03739034 0.008753388 0.09556074
0.055539783 -0.005532007 -0.14894256 0.0074283048 -0.15291916 0.025811356 -0.036697894 0.026690463
0.01713819 0.05855645 -0.12296525 -0.10275028 -0.12612744 0.10203011 -0.05263426 -0.14488263
0.007852935 -0.015283448 -0.06641989 -0.09297952 -0.16226538 -0.3085789 -0.048669104 -0.017108727
-0.062134307 -0.13288018 -0.027189538 0.04276161 -0.14074422 0.031328805 -0.071850665 -0.0915148
-0.12936057 0.08985836 -0.035023946 0.14274058 0.023874698 -0.17109826 0.15627171 0.22142948
0.024164721 0.014793238 0.054908782 -0.040847573 -0.07081373 0.007041332 -0.050641727 0.10813174
-0.14555973 -0.0250524 0.08664467 -0.04246181 0.091751136 -0.081069544 -0.09940384 -0.0016769429
0.09304262 -0.0023740535 0.047170304 0.0017279284 -0.047768194 0.11893369 -0.023265205 0.12071391
-0.040687073 -0.0034582617 0.070154995 0.122605294 0.015695266 0.0060198368 -0.03847849 0.09086083
0.11532483 -0.03534976 -0.07292224 -0.006834358 0.042952888 0.104049325 0.05033377 -0.176317
-0.1049854 -0.05447448 0.0017774983 0.03964544 0.020913638 0.2513679 0.24397805 0.04527107
0.058198754 0.022431634 0.034104824 0.097922035 0.0123856915 -0.11071619 -0.08370467 -0.14027199
0.0014582312 -0.09013953 -0.08704122 -0.048790105 -0.14680935 -0.11581413 -0.1033793 -0.1708809
0.031899106 -0.010938174 0.0035210657 -0.032568008 0.025035976 -0.06980061 0.020410402 0.14707719
-0.034902412 0.026122494 -0.18620639 -0.18818305 0.10748217 0.06451405 -0.19478203 -0.028538993
-0.07695515 0.06579215 -0.064193115 0.05753205 -0.008183382 -0.072152756 0.011790842 0.046682082
-0.024524543 0.005118549 -0.0517452 0.054747783 0.008986376 0.006935939 0.06546264 0.040675
0.14254849 -0.010984184 0.06580799 0.07339176 -0.13718864 0.0077528674 0.22889154 -0.0026908985
-0.0058932896 0.0019948145 -0.06354041 0.0056526875 -0.13824779 -0.014975051 -0.088368 0.08815506
-0.102077775 -0.18786217 -0.37516734 -0.18944435 0.05908325 0.119699344 0.13622391 0.12036726
-0.0070842234 0.03603054 0.0047771456 0.0071422043 -0.11168315 -0.16781406 -0.088491276 -0.21445929
0.13461787 0.055685002 -0.08052578 0.0680185 0.12314681 0.027518295 0.05656489 0.21706282
-0.0065779714 -0.226791 -0.16602835 -0.07836625 -0.030970495 -0.21742532 -0.16565026 -0.21388224
0.15410194 0.1549458 -0.056203287 -0.089302845 -0.07200609 0.0047302963 -0.024252292 0.112569846
0.07022336 0.09499767 -0.023412952 -0.051881716 -0.01924761 -0.120851904 -0.23652431 0.06550777
-0.11089849 -0.0725841 -0.092020914 -0.17615083 0.1956013 0.09923454 -0.02923852 0.117117144
0.062116716 -0.054525424 -0.078443915 0.14045511 -0.049330857 -0.1783134 -0.034251668 -0.020837374
00000000: 3731 ab3c 1d57 23bd 06a8 c53c 40a4 2ebd
00000010: 2a83 4cbd deee 37bd 1a55 5dbd 5532 2b3c
00000020: 9f7e 1e3d 23a3 0d3b 16f5 95bc bb2c 0dbd
00000030: 1fa0 bf3c 6d66 85bd e747 68bc be40 0e3a
00000040: 7729 2e3c c42b 97bd 63c8 273d 2eeb ad3d
00000050: e933 8b3c fde0 df3b 5659 c5bc 7f58 d1bc
00000060: 5de9 943c 1167 9dbc 3cbe 373e eaed 693e
00000070: 1421 8bbd 65fc 893d b3c4 f83d bb66 e0bc
00000080: 0699 5a3d aa37 da3d 77eb 243e 15fd e63b
00000090: 63c0 703d 9d26 193d 5f6a 0f3c 59b5 c33d
000000a0: af7d 633d d745 b5bb 6684 18be 2369 f33b
000000b0: d796 1cbe 5672 d33c 8850 16bd f5a5 da3c
000000c0: 6465 8c3c e3d8 6f3d 34d5 fbbd bd6e d2bd
000000d0: 8d27 01be 2af5 d03d 0697 57bd 1d5c 14be
000000e0: 99a9 003c 6d67 7abc 2707 88bd 0c6c bebd
000000f0: e528 26be 0efe 9dbe 4159 47bd 9a27 8cbc
00000100: 8b80 7ebd be11 08be 98bc debc cc26 2f3d
00000110: 411f 10be a252 003d 7126 93bd 1d6c bbbd
00000120: 1977 04be a907 b83d 4575 0fbd 962a 123e
00000130: df94 c33c 6234 2fbe b105 203e 69be 623e
00000140: 18f5 c53c 565f 723c 08e8 603d c94f 27bd
00000150: ca06 91bd f9ba e63b b36d 4fbd 2c74 dd3d
00000160: 9c0d 15be b13a cdbc c372 b13d 6fec 2dbd
00000170: 05e8 bb3d ca07 a6bd 3e94 cbbd decc dbba
00000180: 218d be3d 0296 1bbb a635 413d a87b e23a
00000190: 95a8 43bd 8293 f33d ac96 bebc db38 f73d
000001a0: 7da7 26bd 01a4 62bb 6cad 8f3d 7c18 fb3d
000001b0: 5c93 803c 0d42 c53b 9f9b 1dbd 3e15 ba3d
000001c0: 6d2f ec3d e9ca 10bd 4158 95bd c0f2 dfbb
000001d0: 5eef 2f3d d017 d53d c92a 4e3d 728c 34be
000001e0: 9602 d7bd a220 5fbd f2fa e83a 4263 223d
000001f0: 1453 ab3c 4bb3 803e 62d5 793e 286e 393d
00000200: d161 6e3d 8cc2 b73c 80b1 0b3d 598b c83d
00000210: 5bed 4a3c 2bbf e2bd 5b6d abbd 76a3 0fbe
00000220: 1f22 bf3a 139b b8bd ab42 b2bd 22d8 47bd
00000230: 3155 16be f52f edbd 87b8 d3bd 67fb 2ebe
00000240: a3a8 023d 0736 33bc aec1 663b 0866 05bd
00000250: 3f18 cd3c 9ff3 8ebd b733 a73c 679b 163e
00000260: d5f5 0ebd d7fe d53c e3ac 3ebe 0fb3 40be
00000270: 9d1f dc3d f11f 843d f174 47be 9bca e9bc
00000280: a99a 9dbd 09be 863d ae77 83bd baa6 6b3d
00000290: 9813 06bc d3c4 93bd 602e 413c b635 3f3d
000002a0: b2e7 c8bc 80b9 a73b c6f2 53bd 363f 603d
000002b0: 983b 133c e046 e33b 4711 863d d49a 263d
000002c0: 3bf8 113e 02f7 33bc 57c6 863d 6b4e 963d
000002d0: 2e7b 0cbe c40b fe3b 8b62 6a3e c959 30bb
000002e0: 7f1c c1bb 6fbb 023b 7921 82bd 2e3a b93b
000002f0: d490 0dbe eb59 75bc 48fa b4bd a48a b43d
00000300: 270e d1bd f15e 40be ef15 c0be b3fd 41be
00000310: 4701 723d ee24 f53d 487e 0b3e 1c83 f63d
00000320: c622 e8bb c294 133d 9a89 9c3b 2709 ea3b
00000330: 23ba e4bd 73d7 2bbe ea3a b5bd 379b 5bbe
00000340: 44d9 093e f515 643d b3ea a4bd 494d 8b3d
00000350: 6534 fc3d 0c6e e13c 96b0 673d b745 5e3e
00000360: 068c d7bb e63b 68be 5603 2abe 7c7e a0bd
00000370: d6b5 fdbc bea4 5ebe 39a0 29be f203 5bbe
00000380: e6cc 1d3e 1daa 1e3e 6b35 66bd 69e4 b6bd
00000390: ee77 93bd 9a00 9b3b beac c6bc 058b e63d
000003a0: 44d1 8f3d 238e c23d 85cc bfbc ec81 54bd
000003b0: 2aad 9dbc 3481 f7bd 6e33 72be f028 863d
000003c0: bf1e e3bd f9a6 94bd 7675 bcbd e260 34be
000003d0: b54b 483e 7a3b cb3d 9f85 efbc 1ddb ef3d
000003e0: 196e 7e3d 0d56 5fbd 34a7 a0bd 77d3 0f3e
000003f0: 270f 4abd ca97 36be 7a4b 0cbd 24b3 aabc

fc1.bias f4 [50]
-0.05669997 -0.07035 0.12681343 -0.11854198 0.016785273 0.0402288 -0.075668134 0.15855083
0.106925175 -0.0006240824 -0.08456824 -0.0781815 0.05040876 -0.05736092 -0.035994686 0.004480264
-0.0065992847 0.005454804 0.053400334 -0.08486873 0.028040024 0.08011291 0.055918287 -0.022985544
0.10812202 -0.090492435 0.02496991 0.020393362 -0.015875729 0.041259825 0.03944413 0.023303218
-0.08842956 -0.03924279 0.0013438491 0.063818306 0.08600516 -0.031193586 0.029477388 0.08275768
-0.11169461 0.08093683 -0.037069425 -0.10288984 -0.044717733 0.056592297 -0.06611151 -0.13183564
0.023952868 -0.0374913
00000000: 3a3e 68bd a913 90bd 61db 013e 23c6 f2bd
00000010: 4581 893c f4c6 243d e5f7 9abd 265b 223e
00000020: 96fb da3d 7699 23ba 1d32 adbd 9f1d a0bd
00000030: 6a79 4e3d 49f3 6abd 2a6f 13bd 2ecf 923b
00000040: d03e d8bb 36be b23b 4fba 5a3d a8cf adbd
00000050: 31b4 e53c 3d12 a43d 930a 653d 2e4c bcbc
00000060: 146f dd3d 1954 b9bd b28d cc3c fb0f a73c
00000070: d10d 82bc 1000 293d 2b90 213d 64e6 be3c
00000080: 8f1a b5bd 0cbd 20bd 1824 b03a 2cb3 823d
00000090: 7923 b03d b189 ffbc 907a f13c dc7c a93d
000000a0: 25c0 e4bd 35c2 a53d 1cd6 17bd e9b7 d2bd
000000b0: f129 37bd 53cd 673d 7965 87bd ecff 06be
000000c0: ce38 c43c 7a90 19bd

fc2.weight f4 [10, 50]
-0.027797949 -0.31772602 -0.16494003 0.0076525584 -0.2995883 -0.052118983 -0.062045373 -0.044320453
0.14636195 -0.13995364 -0.19492784 0.0357578 0.063557 -0.18322353 -0.012220348 -0.17869844
-0.25464958 -0.110247396 0.11000925 -0.16939501 0.026577305 -0.20270675 0.11095263 -0.021713879
0.10126815 0.017011773 0.10826287 0.08502576 -0.4283808 -0.14396894 0.08283149 0.145796
0.009639093 -0.08797665 -0.035071068 -0.120132565 0.10385257 -0.270705 -0.020574141 0.13494116
-0.015517152 0.19149846 -0.07435868 -0.16728213 -0.025698908 0.17001449 -0.11664052 -0.023546755
-0.18544787 -0.023758719 -0.109760284 -0.26283664 0.19721057 -0.013143355 0.16244891 -0.045358222
-0.17145346 0.3112259 0.058676474 0.06946497 0.020387968 -0.08144752 0.24344967 -0.111735776
0.018925577 -0.074012205 0.121002756 -0.075972885 0.017562658 -0.004257285 -0.055263203 0.08140685
0.022046503 -0.04513681 -0.1924729 -0.13534087 -0.20207867 0.06331883 -0.06799169 0.15982513
-0.046941385 -0.043975838 -0.23806348 -0.08717308 0.110454954 0.069661275 0.1427714 -0.09225515
-0.18176346 -0.0031189409 0.022424027 -0.1711552 0.038991038 -0.13216414 -0.07669867 -0.12942827
0.10100391 -0.113204606 -0.019041207 -0.09898172 0.022668976 -0.017976388 -0.06769306 0.1309587
0.19275685 -0.031775873 -0.10883143 -0.38494772 -0.31960362 0.19485505 -0.012225078 0.1258927
-0.06807688 0.013878279 -0.10053761 -0.15858491 -0.23211466 0.10369175 -0.06057103 0.07960958
0.11236768 -0.062915236 -0.114022404 0.14350785 -0.13492726 -0.08612593 -0.10229701 0.061020255
-0.14094692 0.13454746 0.040685397 -0.08465758 -0.042673096 0.15711129 0.102555074 0.07682427
0.105125055 0.023567181 0.096624866 0.11913926 0.09283023 -0.08354361 -0.22000314 -0.087683864
-0.10734795 0.10123301 -0.13269459 -0.17267837 0.14230382 -0.27344546 -0.003193498 -0.065134525
-0.22282249 -0.2348579 0.06634636 -0.024791462 -0.040136404 -0.2854923 -0.18089366 -0.17718904
0.16617708 0.06560808 -0.087370306 0.034573805 0.009337197 0.11706524 -0.031772986 0.11124576
-0.13188966 -0.1252871 -0.08779579 -0.1314468 0.033518925 -0.14205974 0.023848407 0.117185876
0.03367991 0.01456962 0.16690455 -0.20847574 -0.10328668 0.10791019 -0.008365332 -0.15238477
-0.107910655 0.2181578 -0.016297027 0.041813713 -0.061179142 0.01577263 -0.06984087 -0.19276959
-0.33586895 -0.095855586 -0.033753537 -0.14682056 -0.29142097 -0.20214704 0.18647645 -0.100864716
-0.26302043 -0.08263433 -0.18156947 -0.09092495 -0.20786268 -0.054577798 0.11221108 -0.09995752
-0.17629535 -0.13009132 -0.09576683 -0.27515092 0.05098714 0.109480865 0.038123544 0.052610345
-0.056475893 -0.17624782 0.0176655 -0.23379794 0.104055285 0.12077374 0.2177859 0.17407379
-0.13532677 -0.05064522 -0.09729652 -0.19734344 -0.0407939 0.012082263 0.21548374 0.14407504
-0.09647691 -0.19144462 0.117481746 -0.123615384 -0.17225935 0.03435674 0.047822677 0.039219152
-0.017222853 0.027570825 -0.009686443 -0.09851096 -0.09738157 -0.12824929 0.073451154 -0.013676437
-0.27253655 -0.046668533 -0.1344298 -0.17497659 0.07668519 -0.20128456 -0.13833307 0.10551916
00000000: 86b8 e3bc fcac a2be 0ae6 28be 50c2 fa3b
00000010: a363 99be b77a 55bd 4a23 7ebd 5d89 35bd
00000020: e8df 153e 0250 0fbe 2a9b 47be c576 123d
00000030: 2c2a 823d f39e 3bbe db37 48bc b9fc 36be
00000040: 6e61 82be 63c9 e1bd 884c e13d e375 2dbe
00000050: a6b8 d93c 5c92 4fbe 223b e33d 4ee1 b1bc
00000060: ad65 cf3d 465c 8b3c ecb8 dd3d fc21 ae3d
00000070: ba54 dbbe 986c 13be 8ea3 a93d 8c4b 153e
00000080: 49ed 1d3c 1a2d b4bd aea6 0fbd 1008 f6bd
00000090: a8b0 d43d d999 8abe 1a8b a8bc 042e 0a3e
000000a0: a73b 7ebc 2c18 443e 5d49 98bd 024c 2bbe
000000b0: 8486 d2bc 4718 2e3e 3ae1 eebd 20e5 c0bc
000000c0: 0ce6 3dbe a5a1 c2bc 00ca e0bd 8692 86be
000000d0: 91f1 493e 3a57 57bc 0259 263e 8bc9 39bd
000000e0: 7f91 2fbe 0059 9f3e be56 703d a643 8e3d
000000f0: ab04 a73c f5cd a6bd df4a 793e bad5 e4bd
00000100: d009 9b3c b693 97bd 4bd0 f73d ac97 9bbd
00000110: 90df 8f3c b280 8bbb ab5b 62bd a2b8 a63d
00000120: de9a b43c 60e1 38bd 9e17 45be cc96 0abe
00000130: b6ed 4ebe 4ead 813d 3a3f 8bbd 33a9 233e
00000140: 9c45 40bd 0220 34bd eac6 73be cd87 b2bd
00000150: 3536 e23d 92aa 8e3d aa32 123e 45f0 bcbd
00000160: 3320 3abe 2567 4cbb 98b2 b73c 4f43 2fbe
00000170: 11b5 1f3d 0956 07be 3114 9dbd d888 04be
00000180: 23db ce3d d1d7 e7bd 4efc 9bbc eeb6 cabd
00000190: 4ab4 b93c 3843 93bc a9a2 8abd 0a1a 063e
000001a0: 0d62 453e 6b27 02bd 03e3 debd de17 c5be
000001b0: 16a3 a3be 1588 473e b24b 48bc 04ea 003e
000001c0: e46b 8bbd b961 633c aae6 cdbd 1564 22be
000001d0: 77af 6dbe 575c d43d 5419 78bd 590a a33d
000001e0: 0721 e63d b4d9 80bd 9484 e9bd b9f3 123e
000001f0: 5f2a 0abe cb62 b0bd 1881 d1bd 60f0 793d
00000200: 6454 10be cfc6 093e bba5 263d f460 adbd
00000210: fcc9 2ebd c8e1 203e 6508 d23d 0b56 9d3d
00000220: ce4b d73d f60f c13c 42e3 c53d 49ff f33d
00000230: c71d be3d ea18 abbd 8148 61be 9993 b3bd
00000240: 3ed9 dbbd 4153 cf3d 17e1 07be 99d2 30be
00000250: 18b8 113e 0b01 8cbe 014a 51bb 4065 85bd
00000260: 942b 64be 977e 70be 9ae0 873d 7717 cbbc
00000270: 1266 24bd 0c2c 92be 303c 39be 0b71 35be
00000280: 532a 2a3e 875d 863d 34ef b2bd 439d 0d3d
00000290: 0bfb 183c e7bf ef3d 6424 02bd d1d4 e33d
000002a0: 150e 07be 434b 00be 47ce b3bd fd99 06be
000002b0: 244b 093d 1c78 11be bc5d c33c 26ff ef3d
000002c0: f2f3 093d 6ab5 6e3c 07e9 2a3e aa7a 55be
000002d0: f887 d3bd 0500 dd3d bf0e 09bc c10a 1cbe
000002e0: 4300 ddbd c264 5f3e 5881 85bc db44 2b3d
000002f0: fb96 7abd 9a35 813c bb08 8fbd 6465 45be
00000300: 04f7 abbe ef4f c4bd 2641 0abd 2158 16be
00000310: 2135 95be a2ff 4ebe aff3 3e3e 2992 cebd
00000320: 9daa 86be 303c a9bd 59ed 39be dc36 babd
00000330: f4d9 54be f88c 5fbd ecce e53d 87b6 ccbd
00000340: c586 34be a936 05be 6621 c4bd 95e0 8cbe
00000350: e4d7 503d 8137 e03d 6f27 1c3d f27d 573d
00000360: 4453 67bd 4f7a 34be 3db7 903c ba68 6fbe
00000370: f01a d53d 3958 f73d 4403 5f3e 6640 323e
00000380: 1a93 0abe 5d71 4fbd 6643 c7bd 6614 4abe
00000390: 8117 27bd aff4 453c c5a7 5c3e 6888 133e
000003a0: b095 c5bd 0f0a 44be 459a f03d 102a fdbd
000003b0: c164 30be a7b9 0c3d b6e1 433d 43a4 203d
000003c0: f116 8dbc 36dc e13c e3b3 1ebc 1dc0 c9bd
000003d0: fd6f c7bd c853 03be 8f6d 963d 2213 60bc
000003e0: e989 8bbe 8127 3fbd f7a7 09be 102d 33be
000003f0: 200d 9d3d 8a1d 4ebe 2fa7 0dbe 6e1a d83d

fc2.bias f4 [10]
-0.0007088667 0.16140245 -0.038609598 -0.07290922 0.048553858 -0.054662194 -0.13247575 -0.14922103
0.020146582 0.024672285
00000000: 3dd3 39ba af46 253e 1925 1ebd 6e51 95bd
00000010: 69e0 463d 77e5 5fbd b9a7 07be 66cd 18be
00000020: 720a a53c 881d ca3c
